storage/multigrid-rat-50-v0/PPO_multigrid-rat-50-v0_seed_1_run_0_agent_0.pth (torch, 587061 bytes, 15 tensors)

actor.0.weight f4 [32, 3, 4, 4]
0.10359298 -0.06985149 -0.038846835 0.036616787 -0.11225031 0.08214926 -0.024297046 0.07745476
0.05404326 -0.01290995 0.067175314 8.420632e-06 0.09526204 -0.033052765 -0.0015157791 -0.021930106
0.023234617 0.0016927684 0.1325068 0.031256754 -0.097606316 -0.0801428 -0.024596365 -0.07793655
-0.038404785 0.0096226 0.1081984 0.09639807 -0.104926996 0.11613867 0.03293824 0.14783569
0.09527142 -0.13151139 -0.13723737 -0.06961864 0.12674451 -0.024042163 0.061770625 -0.06707531
0.14162661 -0.061069 0.10824232 0.0017091957 -0.076039545 0.07419165 -0.076617286 0.042450357
-0.041919924 -0.028757438 -0.14137919 -0.07113246 0.07002314 -0.012267912 0.14942008 0.11215419
0.0071621924 -0.1058552 0.08821737 0.041866027 -0.100146115 0.12511608 0.10563885 0.10222312
-0.059663847 -0.0042868694 -0.016208649 -0.0030221415 -0.12041451 -0.12500775 0.09455551 -0.03281693
0.105403975 -0.005363626 0.04095355 0.019589027 0.041828457 0.06877484 -0.13823532 0.07243571
-0.10148709 -0.10890399 0.0087778 -0.024596157 0.08477292 -0.08359103 -0.12831348 0.10504437
-0.021402637 0.0811837 0.046402298 -0.10823517 0.02899717 0.03466939 -0.096642464 -0.06848417
0.067854986 0.020146519 -0.07439375 -0.053071264 0.16305366 -0.00046125037 0.0777723 0.067182355
-0.082132734 -0.14924635 0.13399802 0.009948958 0.131403 0.02695958 0.061113864 0.12864259
0.16279799 -0.11463328 0.012740452 0.12585373 0.11681745 0.123822525 -0.15940896 -0.12094299
-0.07619833 -0.006918791 0.21218732 -0.110887654 0.07848521 -0.08584945 -0.122414656 0.0060293926
0.083163105 0.13399938 -0.089639224 0.03132287 0.12454314 0.0956458 0.0899545 0.10257097
0.091295876 0.03728187 -0.09870093 -0.1212087 -0.06613845 -0.016807517 -0.08847203 0.052806426
0.04467072 -0.028459685 0.041579507 0.03908929 0.08812371 0.10962782 -0.044750847 0.134206
-0.01668654 -0.014762229 -0.16410491 -0.096436754 -0.084322505 -0.03735935 0.10980974 -0.033284936
-0.107860744 0.07912372 0.04038999 0.1002771 -0.07469067 0.0103193205 -0.06846855 -0.030577473
-0.11502526 -0.07213453 -0.045518596 0.08243486 0.026368948 0.03668022 0.15546155 0.1484562
0.09844502 0.0045962194 -0.09985149 0.1128012 -0.036093544 -0.011669022 -0.12434666 -0.028510798
-0.09309597 0.13263264 -0.12478286 -0.11250864 -0.004901168 -0.078045554 0.051645666 -0.055559225
-0.05370321 0.0018476543 0.10448797 -0.07613545 0.064453684 0.1137024 0.13253629 -0.08644455
0.050451584 -0.11811649 0.13529018 -0.051308695 0.10039159 0.040676154 -0.015429965 -0.032209516
0.01138178 0.059884954 0.009126204 0.020347156 -0.14576271 0.11698514 0.1473443 0.13914193
0.11351655 -0.15819468 -0.100529194 0.16004829 -0.11396047 0.14035437 -0.10594281 -0.081534296
0.070563465 -0.10370496 -0.033067837 0.1050044 0.114328176 0.13650808 -0.029288612 -0.11218793
0.14211634 -0.030747678 -0.059385546 0.03518572 -0.1009388 0.094870225 0.090461075 -0.11452915
-0.09220336 -0.0152454 0.061966557 0.010634445 -0.05106312 0.020466283 -0.13152371 -0.08786284
-0.08694042 0.10450815 0.14401603 -0.058464743 0.020451957 0.045544125 -0.046924144 -0.0942518
00000000: 8e28 d43d 4c0e 8fbd dc1d 1fbd 7cfb 153d
00000010: 7ee3 e5bd df3d a83d 990a c7bc 9aa0 9e3d
00000020: 775c 5d3d 4184 53bc 3693 893d 5746 0d37
00000030: bf18 c33d 5662 07bd 1bad c6ba c4a6 b3bc
00000040: 8656 be3c e2df dd3a ddaf 073e 1507 003d
00000050: d2e5 c7bd e921 a4bd 517e c9bc 339d 9fbd
00000060: 564e 1dbd 1ca8 1d3c 1f97 dd3d 5a6c c53d
00000070: f7e3 d6bd 1cda ed3d 3fea 063d 3d62 173e
00000080: aa1d c33d ecaa 06be f487 0cbe 3894 8ebd
00000090: 50c9 013e 12f4 c4bc 3203 7d3d c85e 89bd
000000a0: 9106 113e 7d23 7abd 26ae dd3d 1707 e03a
000000b0: 9fba 9bbd cbf1 973d 86e9 9cbd 6de0 2d3d
000000c0: 3ab4 2bbd b894 ebbc b5c5 10be e5ad 91bd
000000d0: 4b68 8f3d 5aff 48bc 9401 193e 19b1 e53d
000000e0: d3b0 ea3b 9cca d8bd 4fab b43d b67b 2b3d
000000f0: 6819 cdbd 6e1e 003e 2e59 d83d 5b5a d13d
00000100: 1462 74bd de78 8cbb 00c8 84bc 1f0f 46bb
00000110: e29b f6bd 0802 00be 52a6 c13d 0c6b 06bd
00000120: 0ade d73d 5bc1 afbb e9be 273d 2b79 a03c
00000130: 5154 2b3d d3d9 8c3d 8f8d 0dbe 2c59 943d
00000140: 77d8 cfbd 0e09 dfbd c3d0 0f3c e17d c9bc
00000150: 6d9d ad3d c631 abbd 9c64 03be 8121 d73d
00000160: 9554 afbc a443 a63d 5610 3e3d 67aa ddbd
00000170: 798b ed3c 7e01 0e3d 7cec c5bd 6e41 8cbd
00000180: 8ef7 8a3d 500a a53c c05b 98bd 4161 59bd
00000190: 8af7 263e fad3 f1b9 1547 9f3d e796 893d
000001a0: 3535 a8bd 09d4 18be c736 093e f400 233c
000001b0: 828e 063e 56da dc3c 8852 7a3d e2ba 033e
000001c0: 84b4 263e dac4 eabd 54bd 503c cddf 003e
000001d0: fd3d ef3d aa96 fd3d 1a3c 23be f5b0 f7bd
000001e0: df0d 9cbd 07b7 e2bb a247 593e 1119 e3bd
000001f0: dbbc a03d d6d1 afbd 89b4 fabd 3692 c53b
00000200: 6b51 aa3d 2237 093e c594 b7bd 694c 003d
00000210: 7910 ff3d f2e1 c33d 113a b83d bb10 d23d
00000220: 55f9 ba3d e0b4 183d b723 cabd 443c f8bd
00000230: 9873 87bd ebaf 89bc d330 b5bd 8d4b 583d
00000240: a5f8 363d 4924 e9bc 464f 2a3d 171c 203d
00000250: 347a b43d 8d84 e03d aa4c 37bd 4c6d 093e
00000260: 36b2 88bc 47dd 71bc 1e0b 28be a280 c5bd
00000270: 47b1 acbd 1e06 19bd eee3 e03d c955 08bd
00000280: 18e6 dcbd 9e0b a23d f96f 253d 155e cd3d
00000290: 6cf7 98bd 5e12 293c 3d39 8cbd 9c7d fabc
000002a0: 5d92 ebbd 45bb 93bd b571 3abd 9cd3 a83d
000002b0: b103 d83c 003e 163d 5031 1f3e e704 183e
000002c0: 8b9d c93d e29b 963b f07e ccbd 5104 e73d
000002d0: d3d6 13bd 6d2f 3fbc 76a9 febd 7a8f e9bc
000002e0: 1aa9 bebd dad0 073e 288e ffbd ee6a e6bd
000002f0: fa99 a0bb 59d6 9fbd 688a 533d 1292 63bd
00000300: e6f7 5bbd fe2c f23a cafd d53d e7ec 9bbd
00000310: 4b00 843d cedc e83d 98b7 073e d709 b1bd
00000320: 52a6 4e3d 0fe7 f1bd 8289 0a3e 1129 52bd
00000330: 1b9a cd3d 0a9c 263d f7cd 7cbc 20ee 03bd
00000340: a57a 3a3c ed49 753d 1386 153c 14af a63c
00000350: d242 15be e895 ef3d 6de1 163e 397b 0e3e
00000360: 5d7b e83d c9fd 21be 40e2 cdbd b3e3 233e
00000370: 1b64 e9bd 0eb9 0f3e 8bf8 d8bd 74fb a6bd
00000380: 9483 903d 4463 d4bd 2472 07bd 8c0c d73d
00000390: e424 ea3d c6c8 0b3e acee efbc c9c2 e5bd
000003a0: f286 113e 8ee2 fbbc 423e 73bd e71e 103d
000003b0: 00b9 cebd 524b c23d a843 b93d 428e eabd
000003c0: 1dd5 bcbd d8c7 79bc a5d0 7d3d 183c 2e3c
000003d0: 9027 51bd e8a8 a73c 27ae 06be 6ff1 b3bd
000003e0: d20d b2bd 5e08 d63d f078 133e ba78 6fbd
000003f0: dd8a a73c 7a8c 3a3d 8833 40bd 1607 c1bd

actor.0.bias f4 [32]
-0.01904531 0.031543937 0.08944997 0.05990549 0.06806189 0.034133576 -0.109145075 -0.08627319
-0.10344338 0.111713015 -0.12712799 -0.0883879 0.0989603 0.07919296 -0.118292965 0.08006805
-0.027295137 0.059923254 -0.07890386 -0.025719695 0.050336905 0.11810538 0.09882649 -0.08668879
-0.0868892 0.010541476 0.047898725 0.072465315 -0.14906245 0.003973001 0.0007351994 -0.07469364
00000000: e904 9cbc 3734 013d 8c31 b73d 765f 753d
00000010: 0864 8b3d a6cf 0b3d 7487 dfbd 00b0 b0bd
00000020: 1fda d3bd cbc9 e43d d72d 02be b704 b5bd
00000030: b3ab ca3d eb2f a23d 9543 f2bd b8fa a33d
00000040: 0d9a dfbc 1672 753d 5998 a1bd 1cb2 d2bc
00000050: 122e 4e3d 3ce1 f13d 8b65 ca3d e489 b1bd
00000060: f7f2 b1bd 28b6 2c3c 7431 443d b268 943d
00000070: d4a3 18be f32f 823b 66ba 403a fbf8 98bd

actor.2.weight f4 [64, 32, 4, 4]
0.034857586 -0.011731312 -0.04213461 -0.026387345 0.0014169981 -0.012332374 -0.0029414117 0.042992212
0.001809164 -0.013628552 0.049463384 0.032625843 0.029367844 0.0033523603 0.0020203935 -0.034273773
0.0044986913 0.042985644 0.002336305 -0.03943823 0.02425664 0.041961208 0.021490537 0.0020844091
0.00830246 0.00072461896 -0.030958217 -0.006448415 0.036053892 0.004508822 0.04165237 -0.029347893
-0.0064588515 0.0005178899 -0.026302947 0.034121636 0.030865707 0.0175807 0.042051528 0.04120975
-0.025985423 -0.045038596 0.0579683 -0.028691072 -0.006923584 -0.030328803 0.031888675 0.0071643004
0.018397957 0.031712454 -0.0070120026 -0.044175945 0.0021641352 0.02532095 0.016027799 0.02062946
-0.021976516 -0.014483534 0.027859647 0.0125810765 0.010123889 0.019676877 0.020549934 -0.031932727
0.0035289766 0.004224921 -0.042690042 0.0093787005 -0.0005896818 0.05372894 -0.055098794 0.041571964
-0.021627476 0.028503316 0.03498298 -0.0054832576 -0.022610456 -0.0073372447 -0.02756209 0.005462679
0.018576892 0.009133564 -0.025450252 0.024147747 0.04055475 -0.10339778 0.014336836 -0.0029130164
0.017813487 -0.022132201 -0.02020458 -0.0012546432 -0.037237547 0.015920028 0.04137166 -0.008667199
0.00042633116 0.0067208363 -0.02135644 -0.0022611257 0.011385418 0.11675757 -0.013777945 -0.0008748105
-0.0360554 -0.08825181 -0.0022904503 -0.018428383 0.027106792 0.03032176 -0.017144553 -0.0061612474
-0.013544985 0.0011903271 0.014566725 0.04085929 -0.04053636 0.018886965 -0.026614007 -0.036089934
0.034034308 -0.040814623 -0.024781851 0.012123367 -0.00919601 -0.040451854 -0.023051998 -0.018669859
-0.0034467746 -0.029174907 -0.042563055 0.024580158 -0.037950076 -0.017523991 0.033793148 -0.01626644
-0.02922593 0.02461168 -0.019486165 -0.0048737666 -0.002607673 0.020649716 0.0055357777 0.008466106
0.023386564 0.02008743 -0.031649742 -0.017446952 0.030190604 0.008701904 0.05283405 0.04244887
0.027356222 0.0069357427 0.044105407 -0.038874824 0.0068582613 0.011539291 -0.007684561 -0.020753223
0.00815757 -0.03653073 -0.018827902 0.033564243 -0.01623709 -0.01272338 0.019822964 -0.011180842
0.006490799 -0.04416996 0.025164787 -0.039316144 0.005886982 -0.04384641 -0.037931077 0.035553515
-0.024334952 -0.0015252522 0.001968716 0.040664885 0.014109015 0.007476059 -0.04201684 -0.015152956
0.032147978 0.007970925 0.0352707 -0.033327356 -0.035271358 0.008923057 -0.033165053 0.030985689
0.036825392 -0.018303353 -0.028484793 0.04278147 -0.023578832 -0.029589107 -0.0078543825 0.00767708
0.008582336 0.025452917 0.057817273 0.018847644 0.006308946 0.03991538 -0.018238248 -0.0077499887
0.03742353 -0.01487494 0.02369391 0.009477725 0.015599523 -0.010104575 -0.03764068 0.031691637
0.036386847 -0.0049174 -0.022863561 0.0018742176 0.02189729 -0.006255377 -0.01937598 0.034391228
-0.022186054 0.04015605 0.0007515784 0.023200748 0.010390794 -0.0041783 0.032520756 -0.0022148695
0.031181913 0.068919726 -0.01404257 0.02896679 -0.03139809 0.023009792 -0.009468257 0.013713304
-0.0052881227 0.00873583 -0.013348171 0.018315751 0.020629218 -0.04408966 0.049702358 -0.035639107
-0.019725742 0.012482454 0.042514626 0.014370179 -0.024661206 0.0077772313 -0.026521878 0.020791482
00000000: d4c6 0e3d b034 40bc 5795 2cbd 462a d8bc
00000010: 91ba b93a ba0d 4abc b3c4 40bb 9a18 303d
00000020: 7821 ed3a 4a4a 5fbc 1e9a 4a3d ada2 053d
00000030: d594 f03c 46b3 5b3b 9468 043b a862 0cbd
00000040: c269 933b b711 303d b21c 193b fb89 21bd
00000050: dcb5 c63c 84df 2b3d ec0c b03c 959a 083b
00000060: 0b07 083c 5bf4 3d3a 169c fdbc 3a4d d3bb
00000070: 3fad 133d bebe 933b ad9b 2a3d fe6a f0bc
00000080: c6a4 d3bb 01c3 073a 4779 d7bc 21c3 0b3d
00000090: 14da fc3c 6605 903c 393e 2c3d 8ecb 283d
000000a0: 62df d4bc 647a 38bd 2b70 6d3d 8a09 ebbc
000000b0: 3bdf e2bb 1c74 f8bc b39d 023d 82c2 ea3b
000000c0: 50b7 963c ebe4 013d f1c4 e5bb d6f1 34bd
000000d0: 2ad4 0d3b e26d cf3c bb4c 833c 1dff a83c
000000e0: 1808 b4bc 584c 6dbc ea39 e43c dc20 4e3c
000000f0: abde 253c 6731 a13c 5658 a83c e4cb 02bd
00000100: 6746 673b 3571 8a3b c1db 2ebd 1fa9 193c
00000110: e094 1aba e112 5c3d 46af 61bd 5d47 2a3d
00000120: 1b2c b1bc c97f e93c 504a 0f3d e6ac b3bb
00000130: 9039 b9bc 456d f0bb e4c9 e1bc 4600 b33b
00000140: 912e 983c f2a4 153c 0c7d d0bc 7fd1 c53c
00000150: bd1c 263d 37c2 d3bd 0ce5 6a3c 4ee8 3ebb
00000160: 97ed 913c 974e b5bc 1384 a5bc d772 a4ba
00000170: 6686 18bd b86a 823c 5475 293d de00 0ebc
00000180: 3385 df39 763a dc3b b3f3 aebc 652f 14bb
00000190: e789 3a3c 981e ef3d e4bc 61bc 8a53 65ba
000001a0: d4ae 13bd 5dbd b4bd 611b 16bb 1ff7 96bc
000001b0: 100f de3c 5765 f83c bc72 8cbc 4ae4 c9bb
000001c0: c9eb 5dbc c004 9c3a 46a9 6e3c 125c 273d
000001d0: 7409 26bd d6b8 9a3c 9e05 dabc 0ad3 13bd
000001e0: 8f67 0b3d 3c2d 27bd 4f03 cbbc 16a1 463c
000001f0: ddaa 16bc d8b0 25bd 8bd7 bcbc 88f1 98bc
00000200: 48e3 61bb 3700 efbc 9956 2ebd 545c c93c
00000210: 8a71 1bbd 798e 8fbc af6a 0a3d 3241 85bc
00000220: 386b efbc 6f9e c93c 73a1 9fbc 1eb4 9fbb
00000230: 7ee5 2abb 9829 a93c 7865 b53b 6cb5 0a3c
00000240: 2e95 bf3c 658e a43c 29a3 01bd e9ec 8ebc
00000250: 4952 f73c 6e92 0e3c 8468 583d dede 2d3d
00000260: 281a e03c 3a45 e33b dfa7 343d 353b 1fbd
00000270: 44bb e03b 4b0f 3d3c c5ce fbbb aa02 aabc
00000280: 54a7 053c 3fa1 15bd f93c 9abc a97a 093d
00000290: a503 85bc b975 50bc c563 a23c da2f 37bc
000002a0: c5b0 d43b 8feb 34bd 6226 ce3c f709 21bd
000002b0: 96e7 c03b 4b98 33bd 9e5d 1bbd 90a0 113d
000002c0: 185a c7bc f9ea c7ba 9305 013b 3990 263d
000002d0: 8029 673c baf9 f43b da19 2cbd 1b44 78bc
000002e0: 99ad 033d 7c98 023c 0278 103d 4482 08bd
000002f0: b378 10bd 0332 123c 14d8 07bd b3d5 fd3c
00000300: 39d6 163d eaf0 95bc f158 e9bc 9f3b 2f3d
00000310: 6528 c1bc db64 f2bc abaf 00bc 0490 fb3b
00000320: ed9c 0c3c a382 d03c ced1 6c3d 6066 9a3c
00000330: 46bb ce3b 4f7e 233d 6168 95bc 9ef3 fdbb
00000340: 6a49 193d 05b6 73bc bb19 c23c 7648 1b3c
00000350: 2495 7f3c a98d 25bc 1d2d 1abd 17cf 013d
00000360: 600a 153d 2422 a1bb 5d4c bbbc 4fa8 f53a
00000370: f261 b33c e8f9 ccbb 60ba 9ebc d1dd 0c3d
00000380: 87bf b5bc ac7a 243d 9305 453a 7f0f be3c
00000390: 263e 2a3c 1fea 88bb 7c34 053d 5827 11bb
000003a0: 3671 ff3c c925 8d3d cf12 66bc c34b ed3c
000003b0: 499b 00bd 087f bc3c c020 1bbc c4ad 603c
000003c0: fd47 adbb ba20 0f3c 49b2 5abc ea0a 963c
000003d0: 9bfe a83c 5c97 34bd b394 4b3d 50fa 11bd
000003e0: e197 a1bc 3583 4c3c d123 2e3d e670 6b3c
000003f0: 4c06 cabc 25d8 fe3b 6944 d9bc e652 aa3c

actor.2.bias f4 [64]
-0.046978883 -0.020447683 -0.036290377 0.033900112 -0.00985845 -0.032048583 0.039950494 -0.03566199
0.045285694 -0.0092815645 -0.007204788 0.024441583 0.022930818 -0.010789011 0.038727462 0.013893259
0.037759043 0.039759934 -0.024133792 0.0071500503 -0.045699302 -0.040164076 0.015907655 -0.0070813554
-0.034225717 0.008181537 -0.021590453 -0.027962882 0.009690572 -0.0088176085 0.0100847995 -0.007158791
0.006138298 0.021570023 -0.018047214 0.0017993333 0.042209476 0.0104397265 0.008447668 -0.041504286
0.033795543 -0.039382942 0.04758454 0.02650374 -0.029581761 0.000763717 0.046035025 -0.031192303
0.008292333 0.03237957 0.0032977392 0.028356904 0.028395658 -0.0032104522 0.041977737 -8.4030034e-05
0.034825686 -0.000369148 0.022420764 -0.029466625 0.024202669 0.0059420103 -0.028291928 -0.018762114
00000000: ee6c 40bd e681 a7bc 38a5 14bd d8da 0a3d
00000010: 5685 21bc 6045 03bd 21a3 233d 4f12 12bd
00000020: 7e7d 393d b411 18bc 2416 ecbb b739 c83c
00000030: 69d9 bb3c 64c4 30bc b0a0 1e3d 8da0 633c
00000040: 3aa9 1a3d 50db 223d 3bb4 c5bc f84a ea3b
00000050: 312f 3bbd 1683 24bd c550 823c b70a e8bb
00000060: 4430 0cbd da0b 063c 76de b0bc 6a12 e5bc
00000070: 34c5 1e3c bb77 10bc b73a 253c 4b94 eabb
00000080: c723 c93b 9eb3 b03c c0d7 93bc 9bd7 eb3a
00000090: d8e3 2c3d 630b 2b3c 1668 0a3c 6600 2abd
000000a0: 326d 0a3d 0250 21bd 02e8 423d 5f1e d93c
000000b0: 7355 f2bc 2e34 483a 398f 3c3d 0087 ffbc
000000c0: 91dc 073c 71a0 043d e21e 583b bd4c e83c
000000d0: 039e e83c 7366 52bb d9f0 2b3d 4839 b0b8
000000e0: 61a5 0e3d 358a c1b9 c0ab b73c fe63 f1bc
000000f0: ad44 c63c 32b5 c23b 79c4 e7bc 01b3 99bc

actor.4.weight f4 [64, 64, 3, 3]
0.026690807 -0.07938063 0.0007051946 -0.00084855646 -0.00094646047 0.0133067975 -0.0021653052 -0.007085466
-0.056030605 -0.010112223 0.027225763 -0.028004643 -0.046035834 -0.025507992 -0.02626733 -0.018754296
0.020729616 0.008120836 0.011598106 0.013519316 -0.000997316 -0.0726485 0.07079834 0.06551997
-0.013234989 -0.060884364 -0.042587165 0.03738087 -0.025905257 -0.002657324 0.015676906 0.03968468
-0.0062574795 -0.03019483 -0.02876544 -0.019308299 -0.0029029509 0.08938143 -0.010258397 -0.027817773
0.03635334 0.0017499404 0.1039022 -0.053477537 0.1021737 0.017670497 0.011421992 -0.036740374
-0.01631067 -0.041292384 -0.017248712 0.008943144 -0.037777748 0.032847572 0.037989497 -0.024508532
0.016469378 0.020456977 0.059401885 0.008625339 0.0027475106 0.04791617 0.009832026 0.0077316514
-0.031699397 -0.043191947 0.025857724 -0.019093456 0.029628638 0.022443704 0.049911737 -0.02133033
-0.017169248 -0.00806361 0.030801672 -0.047618013 0.028397098 -0.037650794 0.028642394 -0.022388227
0.025850898 -0.0005833606 -0.0058617396 -0.0023502673 0.02730951 0.032343045 0.005552032 -0.0028995299
0.041115873 0.03439242 -0.012386356 0.043235503 0.17764047 -0.1180138 0.15659533 0.1231392
-0.011081629 -0.024538811 0.10186817 0.024566442 0.031209692 -0.03192216 0.011025071 0.009991875
-0.02642256 -0.0048719896 0.005104353 0.021093454 -0.024885034 0.006601598 5.579246e-05 0.02186097
-0.036672827 0.028334012 0.014701534 0.038478166 0.015303395 0.017968155 -0.050658785 -0.02854306
-0.027827058 -0.0048076888 0.018593775 -0.038510937 0.03307449 -0.02921628 -0.019671936 -0.033765573
-0.006173617 -0.014275267 0.010363421 0.0065697078 0.040507235 -0.024478268 0.03993002 -0.025135808
0.014110723 0.02563629 0.008650197 0.015675018 0.043630566 0.017771648 -0.00063483464 0.011444286
0.011277866 0.027304942 -0.0029534341 0.02248291 0.009926404 0.026283555 0.03020205 0.0026414641
0.037437078 -0.009962833 -0.017582484 0.041122116 0.03206931 0.03461363 0.03898797 -0.02989373
0.03975504 -0.04148459 -0.032026097 -0.03659643 -0.008757037 -0.022798708 -0.0017724662 0.06550809
-0.02293294 -0.014078951 0.024558771 -0.02601571 -0.037641827 -0.0031680658 0.036189992 -0.018831652
-0.025998967 0.024434261 0.0022052492 -0.043595023 0.019650554 -0.009137472 0.044660926 -0.0052446895
-0.014607985 -0.0004099571 0.002151957 -0.0042766733 -0.038008668 -0.01115765 0.03231714 0.009347681
0.0074946578 -0.001709834 0.035930615 0.033158887 0.00076093967 0.048654236 -0.035998452 -0.041735414
-0.017028732 -0.017689412 0.011834323 0.009272001 -0.0064096516 -0.020412968 0.04702887 0.017378237
0.003286312 -0.03332928 0.032650705 0.027421629 0.01153719 -0.009228578 -0.01492856 0.0061274767
-0.00995627 -0.012241194 0.011113314 -0.008208913 0.026651658 -0.039906535 -0.027303517 0.010240505
-0.03946532 0.008216276 -0.013774244 -0.029752001 0.0029326922 0.014091114 0.036541063 0.035868406
-0.014972082 -0.0035720496 0.035380345 -0.0065679406 -0.02020491 -0.030370016 -0.015938956 -0.056189664
0.006253266 -0.016046101 0.011171783 -0.016928285 0.012088694 -0.005139912 0.0018687702 -0.021893688
0.005592022 -0.0006352608 -0.043761175 0.05002738 0.03250958 0.014768025 -0.029220313 0.015518552
00000000: aea6 da3c 5092 a2bd cfdc 383a a971 5eba
00000010: e31b 78ba c104 5a3c cbe7 0dbb 322d e8bb
00000020: 5980 65bd bdad 25bc 9008 df3c fe69 e5bc
00000030: 1290 3cbd 23f6 d0bc 952e d7bc 9ca2 99bc
00000040: 28d1 a93c 410d 053c fb05 3e3c 1f80 5d3c
00000050: 5fb8 82ba bdc8 94bd b8fe 903d 562f 863d
00000060: 91d7 58bc e261 79bd e16f 2ebd af1c 193d
00000070: 4337 d4bc 8026 2ebb db6c 803c 678c 223d
00000080: 8b0b cdbb 265b f7bc 80a5 ebbc 702c 9ebc
00000090: 6f3f 3ebb 9c0d b73d d612 28bc 19e2 e3bc
000000a0: 3de7 143d 425e e53a adca d43d 430b 5bbd
000000b0: 7240 d13d b8c1 903c 4f23 3b3c 137d 16bd
000000c0: f49d 85bc 3422 29bd 2c4d 8dbc 4486 123c
000000d0: d7bc 1abd 2d8b 063d e09a 1b3d 1ec6 c8bc
000000e0: caea 863c 6495 a73c 644f 733d 4b51 0d3c
000000f0: 940f 343b bf43 443d 8216 213c cb59 fd3b
00000100: 3ad7 01bd 0aea 30bd 94d3 d33c e169 9cbc
00000110: c2b7 f23c dcdb b73c 4070 4c3d f2bc aebc
00000120: 86a6 8cbc 3b1d 04bc ca53 fc3c 1b0b 43bd
00000130: 08a1 e83c b837 1abd 74a3 ea3c 8467 b7bc
00000140: 43c5 d33c abec 18ba d613 c0bb f106 1abb
00000150: 32b8 df3c 247a 043d d2ed b53b 0a06 3ebb
00000160: 1e69 283d 11df 0c3d 24f0 4abc b617 313d
00000170: 62e7 353e 38b1 f1bd 875a 203e 6830 fc3d
00000180: b98f 35bc 9e05 c9bc 42a0 d03d 903f c93c
00000190: 78ab ff3c d0c0 02bd 80a2 343c f6b4 233c
000001a0: 2074 d8bc 36a5 9fbb 6b42 a73b 2ecc ac3c
000001b0: b3db cbbc 3852 d83b b302 6a38 c715 b33c
000001c0: 3f36 16bd bb1c e83c b4de 703c 489b 1d3d
000001d0: 17bb 7a3c f431 933c 967f 4fbd 23d3 e9bc
000001e0: 92f5 e3bc d189 9dbb f951 983c a5bd 1dbd
000001f0: 1e79 073d fb56 efbc 0a27 a1bc c54d 0abd
00000200: 0e4c cabb cfe2 69bc 57cb 293c b446 d73b
00000210: eaea 253d a686 c8bc a98d 233d 9ce9 cdbc
00000220: a930 673c 3203 d23c 8eb9 0d3c e568 803c
00000230: f7b5 323d d995 913c 086b 26ba d180 3b3c
00000240: ccc6 383c 9dae df3c 678e 41bb 142e b83c
00000250: 5ba2 223c 9c50 d73c 4a6a f73c 6a1c 2d3b
00000260: 9f57 193d 263b 23bc 2409 90bc aa6f 283d
00000270: 1c5b 033d 06c7 0d3d dab1 1f3d b2e3 f4bc
00000280: 2ed6 223d bfeb 29bd cc2d 03bd 23e6 15bd
00000290: ad79 0fbc 5bc4 babc 1952 e8ba 1b29 863d
000002a0: dcdd bbbc 67ab 66bc 7a2f c93c e61e d5bc
000002b0: 512e 1abd 539f 4fbb f53b 143d d644 9abc
000002c0: c9fb d4bc 5c2a c83c f185 103b b290 32bd
000002d0: 33fa a03c 56b5 15bc 60ee 363d a5db abbb
000002e0: 5456 6fbc 83ef d6b9 d907 0d3b 5623 8cbb
000002f0: faae 1bbd 93ce 36bc fa5e 043d 0427 193c
00000300: bf95 f53b 821c e0ba fb2b 133d 9dd1 073d
00000310: cc79 473a aa49 473d 1d73 13bd c1f2 2abd
00000320: d77f 8bbc 63e9 90bc c0e4 413c 97e9 173c
00000330: 0e08 d2bb 1939 a7bc 58a1 403d ce5c 8e3c
00000340: 2b5f 573b 4884 08bd bfbc 053d 53a3 e03c
00000350: 7b06 3d3c 7633 17bc eb96 74bc 00c9 c83b
00000360: a01f 23bc 4a8f 48bc 9e14 363c ad7e 06bc
00000370: 9454 da3c 0975 23bd a0ab dfbc cbc7 273c
00000380: 63a6 21bd 8f9d 063c 5ead 61bc 78ba f3bc
00000390: 6932 403b 6ade 663c 15ac 153d c0ea 123d
000003a0: 774d 75bc 0c19 6abb fbea 103d e137 d7bb
000003b0: c484 a5bc 8aca f8bc 6a92 82bc 2227 66bd
000003c0: 32e8 cc3b 1d73 83bc db09 373c 30ad 8abc
000003d0: a80f 463c b56c a8bb 86f1 f43a 645a b3bc
000003e0: 483d b73b a187 26ba eb3e 33bd 83e9 4c3d
000003f0: c428 053d 96f5 713c 705f efbc 8641 7e3c

actor.4.bias f4 [64]
0.041043572 0.017239353 0.018010503 -0.0038636506 0.05741135 -0.0244105 -0.018446058 -0.01215725
-0.012517166 0.03449698 0.018933436 0.040464126 0.004507486 -0.0033316847 -0.01883503 0.04009306
-0.01905884 0.026655635 -0.007422132 0.009220857 0.05694552 -0.02572823 0.020546691 0.026196903
0.03695637 0.0006293376 0.035326842 -0.024538228 -0.018443096 0.004895413 0.030698942 -0.031500988
0.0043769665 0.022241186 0.050958205 0.038726896 0.008393985 -0.0040281448 0.01955245 0.022819325
0.011958764 -0.017079666 0.013448457 0.039261263 0.0035929172 0.0057393205 0.040233735 -0.021222388
-0.012057218 0.028196592 0.014681947 -0.0063386494 0.007859885 0.008275941 0.017231572 0.044209767
0.0106659075 -0.027001236 0.004172797 0.05830106 0.016790967 0.044878613 -0.015799817 0.02737054
00000000: 4e1d 283d 8b39 8d3c c38a 933c 4d35 7dbb
00000010: 2a28 6b3d 87f8 c7bc 301c 97bc 342f 47bc
00000020: cd14 4dbc b54c 0d3d 4b1a 9b3c b6bd 253d
00000030: 88b3 933b 6558 5abb ec4b 9abc 9f38 243d
00000040: 4921 9cbc eb5c da3c 5b35 f3bb 1413 173c
00000050: b53f 693d 02c4 d2bc 8951 a83c e39a d63c
00000060: 905f 173d 22fa 243a e1b2 103d 6504 c9bc
00000070: fa15 97bc b369 a03b 597c fb3c 2e07 01bd
00000080: a86c 8f3b 2633 b63c 8db9 503d 18a0 1e3d
00000090: ed86 093c 87fe 83bb 762c a03c 98ef ba3c
000000a0: b1ee 433c a8ea 8bbc eb56 5c3c 6bd0 203d
000000b0: 2677 6b3b e910 bc3b 21cc 243d 93da adbc
000000c0: a38b 45bc 8afc e63c 8d8c 703c 72b4 cfbb
000000d0: bfc6 003c d097 073c 3a29 8d3c 4d15 353d
000000e0: 0fc0 2e3c b231 ddbc f5bb 883b 18cd 6e3d
000000f0: 368d 893c a3d2 373d 9e6e 81bc 2f38 e03c

actor.7.weight f4 [4, 576]
0.036863428 0.04405372 0.030814378 -0.022767972 -0.008622164 0.032731306 -0.04447446 -0.04907217
-0.01791018 -0.011018643 -0.038214862 -0.021877825 -0.02031995 -0.01282209 0.031321954 -0.00830169
-0.007244266 -0.07037868 -0.038834702 0.005627502 -0.05269021 -0.056544077 0.017130053 0.03237873
0.017011994 -0.020660227 -0.023172364 0.023138767 0.018076848 -0.03195567 0.024105957 -0.0056615314
-0.018299995 0.040188845 -0.00060960965 -0.011295827 0.034609627 0.06083943 0.015155065 -0.0004048649
0.016116418 -0.027075939 -0.0018148801 -0.040427085 -0.0028223598 -0.02851055 0.0082151545 -0.029762635
0.010279176 0.0007318201 0.025636004 -0.03471787 0.027397439 -0.010731599 -0.020743843 -0.09461229
0.011612863 0.010049901 -0.013632407 0.0024216094 -0.0030645058 0.028107135 0.036562514 -0.03783614
-0.03184474 -0.030280465 -0.013602418 -0.038855266 0.022021452 -0.00891685 -0.0073087863 -0.014859967
-0.034925766 -0.009415284 0.07665526 -0.03849921 -0.0023103976 -0.02554987 -0.03042485 0.011084709
-0.0051848274 -0.010036582 0.00013912018 0.052596163 -0.045031354 0.039334487 0.03400007 -0.049717367
-0.033124644 0.018480118 0.016869843 0.048281353 0.04441876 0.010834316 -0.04805586 0.005405446
0.0021975958 -0.05709304 -0.0013640198 -0.04250187 0.030676 -0.03789523 -0.036353692 -0.053034686
-0.045683555 -0.048204843 -0.023709904 -0.033176973 -0.0038016925 0.044023603 -0.051979188 0.014228588
0.008264673 -0.013744041 0.031473264 -0.020126835 -0.05215147 0.025250288 0.008761107 -0.0685438
0.00598901 0.04150612 -0.0023104441 -0.03183627 0.069990605 -0.012814801 -0.014561346 0.0054095834
0.037804887 0.03245402 0.0515142 0.020792572 -0.008639258 -0.05406499 -0.028425 -0.033978064
0.0059815925 0.033592224 0.02058415 0.030783532 0.021097204 0.020736523 0.041613054 -0.016695257
0.015466216 -0.03852481 0.011490076 -0.055780083 -0.015149931 -0.013613116 -0.012295361 0.0021585575
-0.009656231 -0.031385083 0.008705712 -0.011055743 0.02253466 -0.04814332 0.0053216293 -0.035703182
-0.039976608 0.0031247002 -0.019953383 0.013913188 -0.031209746 -0.021574272 0.059920922 -0.061477717
0.06737128 0.0016927756 0.0071179583 0.025301144 -0.024539566 0.01192998 -0.035576098 0.033162706
0.0097953575 -0.0074403826 -0.0025019925 0.030289622 0.029992428 -0.035438016 -0.023617951 0.0008760045
0.014509261 -0.03937102 0.016609404 0.024026867 -0.039288823 -0.029053554 -0.0036693555 -0.037196867
-0.04358437 0.0023093435 -0.023067528 0.026500294 -0.06876392 0.047236852 0.008692768 0.032925364
0.03273719 -0.022463515 0.011679006 -0.029083533 0.01298355 -0.011506056 0.016017066 -0.024342176
0.031659864 0.018321665 -0.0033684582 -0.020968249 0.047235508 -0.025274312 0.0023569884 0.00079018355
0.039172355 -0.02163724 -0.023843048 0.0120384265 -0.029984858 0.027658338 -0.0058724293 -0.019705247
-0.0070858616 -0.047240492 -0.007944901 0.041525315 -0.012478269 -0.04751516 -0.0028696381 -0.042106554
-0.03951499 0.015896557 -0.022449082 -0.058612294 -0.0014831073 -0.002069585 0.010803359 -0.015058084
-0.029008366 -0.0045274394 -0.03202764 -0.021818617 0.009820221 0.011120906 -0.011338315 -0.045019254
-0.019624108 0.0028709762 -0.023329228 -0.0068291137 -0.046799622 0.01080318 -0.009946918 0.0028454578
00000000: 1bfe 163d ac71 343d 6f6e fc3c e683 babc
00000010: fa43 0dbc 4311 063d da2a 36bd e6ff 48bd
00000020: 5fb8 92bc 8a87 34bc 3087 1cbd 2039 b3bc
00000030: 0676 a6bc be13 52bc 734b 003d d003 08bc
00000040: 4f61 edbb b322 90bd 2311 1fbd e966 b83b
00000050: b1d1 57bd c39a 67bd 5354 8c3c 8f9f 043d
00000060: bd5c 8b3c a33f a9bc f8d3 bdbc 838d bd3c
00000070: e615 943c f3e3 02bd db79 c53c 5e84 b9bb
00000080: dfe9 95bc 0f9d 243d 36ce 1fba 2212 39bc
00000090: d3c2 0d3d c432 793d f34c 783c 0c44 d4b9
000000a0: 9406 843c 5cce ddbc 45e1 edba df96 25bd
000000b0: 57f7 38bb f58e e9bc db98 063c c5d0 f3bc
000000c0: fd69 283c 9ed7 3f3a 9902 d23c 5334 0ebd
000000d0: 9870 e03c 97d3 2fbc feee a9bc 17c4 c1bd
000000e0: e143 3e3c 57a8 243c 765a 5fbc ddb3 1e3b
000000f0: e0d5 48bb ef40 e63c 93c2 153d 11fa 1abd
00000100: a16f 02bd bd0e f8bc addc 5ebc b326 1fbd
00000110: 5566 b43c fb17 12bc 8b7e efbb 3877 73bc
00000120: 520e 0fbd 9042 1abc 6ffd 9c3d 59b1 1dbd
00000130: 0a6a 17bb f64d d1bc 893d f9bc a49c 353c
00000140: 7ce5 a9bb 7a70 24bc cae0 1139 136f 573d
00000150: cc72 38bd 331d 213d a843 0b3d 70a4 4bbd
00000160: b5ad 07bd 9e63 973c a032 8a3c abc2 453d
00000170: 72f0 353d 6a82 313c 39d6 44bd 2b20 b13b
00000180: 8a05 103b 64da 69bd e9c8 b2ba 7116 2ebd
00000190: 3c4c fb3c 0738 1bbd 9ce7 14bd e63a 59bd
000001a0: ae1e 3bbd 7172 45bd 463b c2bc 94e4 07bd
000001b0: d125 79bb 1852 343d 21e8 54bd 061f 693c
000001c0: 8d68 073c b02e 61bc 1cea 003d 08e1 a4bc
000001d0: c89c 55bd b1d9 ce3c bf8a 0f3c b160 8cbd
000001e0: 753f c43b 5202 2a3d d26a 17bb c066 02bd
000001f0: 3c57 8f3d 2cf5 51bc b692 6ebc e042 b13b
00000200: 4cd9 1a3d 82ee 043d 8e00 533d 2f55 aa3c
00000210: ad8b 0dbc 4073 5dbd 8cdb e8bc 952c 0bbd
00000220: 3c01 c43b 0098 093d 17a0 a83c bf2d fc3c
00000230: 0bd4 ac3c a4df a93c 7372 2a3d 7ec4 88bc
00000240: 0366 7d3c 31cc 1dbd df40 3c3c a879 64bd
00000250: 6b37 78bc 8c09 5fbc 7b72 49bc 9676 0d3b
00000260: 2b35 1ebc a58d 00bd 67a2 0e3c 2623 35bc
00000270: 9b9a b83c ee31 45bd 1061 ae3b 803d 12bd
00000280: 83be 23bd c5c7 4c3b 4775 a3bc 24f4 633c
00000290: 95ab ffbc 87bc b0bc a46f 753d 0fd0 7bbd
000002a0: f4f9 893d 20e0 dd3a c33d e93b 5844 cf3c
000002b0: 3307 c9bc f675 433c 3eb8 11bd 9ed5 073d
000002c0: b57c 203c 74ce f3bb 78f8 23bb f121 f83c
000002d0: aeb2 f53c 7427 11bd 6f7a c1bc aba3 653a
000002e0: 40b8 6d3c 8243 21bd 7210 883c fed3 c43c
000002f0: 51ed 20bd b801 eebc 9279 70bb be5b 18bd
00000300: 8685 32bd 5b58 173b 1df8 bcbc 2517 d93c
00000310: 19d4 8cbd 6e7b 413d 1d6c 0e3c bfdc 063d
00000320: 6f17 063d 6805 b8bc 4d59 3f3c 9740 eebc
00000330: f5b8 543c e683 3cbc 3936 833c 3e69 c7bc
00000340: c6ad 013d 5117 963c 5ac1 5cbb 9bc5 abbc
00000350: 057a 413d 130c cfbc b477 1a3b 5224 4f3a
00000360: 3173 203d 9540 b1bc 7f52 c3bc d23c 453c
00000370: cea2 f5bc bd93 e23c 826d c0bb e66c a1bc
00000380: 8430 e8bb 3f7f 41bd 542b 02bc 7316 2a3d
00000390: a771 4cbc 429f 42bd 8a10 3cbb ec77 2cbd
000003a0: 78da 21bd 7f39 823c 23e7 b7bc 7213 70bd
000003b0: d364 c2ba e0a1 07bb 9200 313c 2fb6 76bc
000003c0: f4a2 edbc ea5a 94bb 6a2f 03bd f5bc b2bc
000003d0: fee4 203c 7634 363c 57c4 39bc 1c66 38bd
000003e0: bdc2 a0bc fd26 3c3b f01c bfbc c2c6 dfbb
000003f0: f6b0 3fbd d2ff 303c 66f8 22bc dc7a 3a3b

actor.7.bias f4 [4]
-0.032908797 0.0075641186 -0.014981327 0.030004904
00000000: 60cb 06bd 6ddc f73b 3d74 75bc d8cc f53c

critic.0.weight f4 [32, 3, 4, 4]
-0.034697656 -0.032585464 0.11964449 0.02234289 0.1152227 0.086879976 -0.023676138 0.11785546
-0.16843684 -0.135778 -0.07085335 0.001906624 -0.060989182 -0.0059702955 0.009336716 0.066665925
-0.022543527 -0.10677601 0.100991055 -0.11723263 0.0755505 -0.13615504 0.006062531 0.13350488
0.05145701 -0.030303856 -0.15361868 0.07439017 0.11398608 -0.08253743 -0.13395324 0.090386696
0.0106588695 -0.14145957 -0.07181204 0.11926798 0.0014921715 0.14188099 0.13777465 0.112204805
0.015690342 -0.059038218 -0.0013890538 0.056956347 -0.00851234 0.087725915 -0.11025097 0.09165426
0.12316641 0.008614586 0.11816455 -0.04321544 -0.0028975157 0.037099827 0.054215353 -0.12080783
-0.15994991 0.031160375 0.07309042 0.05974718 -0.012215774 -0.17479192 0.07349888 0.017679516
0.086015515 0.028386159 -0.039106477 -0.112699725 0.08090225 -0.008588907 0.047491033 0.020158486
-0.05863477 -0.17388579 -0.14632855 0.12895153 -0.08913845 -0.17701092 -0.1704771 -0.20859039
-0.103607915 0.07568761 0.026798332 0.018933246 0.05154988 -0.042388394 -0.051319003 -0.13994326
0.12956117 -0.03733853 0.048549984 -0.07193822 0.015221572 -0.085123 0.099173106 -0.02514086
-0.14103787 0.10421114 -0.04399353 -0.010712784 0.0066859135 0.09546721 -0.05414628 0.018673364
0.10986889 0.14063472 0.025391879 -0.09748349 -0.057187784 -0.12092271 0.0734484 -0.0024662935
0.012067555 -0.09328962 0.008788044 -0.088460974 -0.029525796 0.12319417 -2.8954104e-05 -0.11078719
0.08828057 -0.17411166 0.041876815 -0.023457875 -0.00013940509 -0.06104938 -0.07327499 -0.0701641
0.021168474 -0.14178863 0.09930205 -0.063430354 0.13723662 -0.015402307 -0.106387004 0.061212465
-0.12300477 0.07031447 0.14232585 0.016019998 0.032156624 -0.056980368 -0.022279266 0.03960289
-0.14839171 -0.14679094 0.0845987 0.029452443 -0.01359926 -0.016747713 -0.035590906 0.010252462
0.0462665 0.085053176 -0.07757131 -0.1422812 -0.1420446 0.010307918 -0.026802545 -0.00201072
0.064709574 -0.025161669 0.13616376 -0.11134397 -0.0412678 -0.0974087 0.0017884275 -0.14643362
0.01772536 -0.086581215 0.040557347 -0.058349017 -0.04055261 0.027408719 0.11132124 -0.034722522
0.046606626 0.11499756 0.035878137 -0.09383017 0.113008484 -0.12143791 -0.09692716 -0.013528068
0.04316466 0.028986037 0.13420852 -0.0679749 0.086709514 0.10312296 0.04888174 -0.13855381
0.16017582 -0.030800361 0.1063175 0.077986196 -0.11499964 -0.08395232 0.11877305 -0.11446957
-0.027394123 -0.03573261 0.04499502 0.02452638 0.06534033 0.07463277 0.017396895 0.067798845
0.039082296 0.0014802897 -0.11833225 0.03763915 -0.116403334 0.17580496 -0.016465453 -0.069596
0.13766502 -0.103143305 -0.1248779 0.15665066 -0.088066876 0.11162361 -0.19534472 -0.015973477
0.13976794 0.07679337 -0.069388285 0.02575609 -0.080812596 -0.11143325 0.09594478 0.019155707
-0.053417202 0.04704088 0.06917083 0.13698046 -0.08018081 0.10584796 0.10237107 0.1424301
-0.15122408 -0.09624262 0.020168308 -0.138466 -0.09466827 0.04142778 0.035902373 0.017686408
0.014890102 0.04888601 0.10296228 0.058052484 0.114617586 -0.09786049 0.05824113 0.063594505
00000000: 211f 0ebd 5678 05bd 2c08 f53d 7008 b73c
00000010: e1f9 eb3d 21ee b13d 76f4 c1bc 345e f13d
00000020: b57a 2cbe 6309 0bbe 901b 91bd afe7 f93a
00000030: cbcf 79bd 78a2 c3bb 06f9 183c 2588 883d
00000040: 34ad b8bc 61ad dabd 66d4 ce3d a917 f0bd
00000050: 38ba 9a3d 3a6c 0bbe 32a8 c63b 81b5 083e
00000060: 96c4 523d cb3f f8bc 374e 1dbe e059 983d
00000070: 8971 e93d 6209 a9bd 0a2b 09be a91c b93d
00000080: 8aa2 2e3c c7da 10be 3112 93bd c542 f43d
00000090: f894 c33a 4049 113e cc14 0d3e a2cb e53d
000000a0: 0889 803c 0fd2 71bd e910 b6ba 0f4b 693d
000000b0: 5777 0bbc a5a9 b33d 43cb e1bd 3bb5 bb3d
000000c0: ac3e fc3d 3124 0d3c 4100 f23d ac02 31bd
000000d0: 3fe4 3dbb fdf5 173d eb10 5e3d 186a f7bd
000000e0: e9c9 23be 0b44 ff3c 6eb0 953d 76b9 743d
000000f0: ab24 48bc a7fc 32be 9586 963d a2d4 903c
00000100: e728 b03d 178a e83c 1d2e 20bd 1dcf e6bd
00000110: 14b0 a53d 7db8 0cbc f585 423d 6923 a53c
00000120: 032b 70bd 1e0f 32be 27d7 15be df0b 043e
00000130: 388e b6bd 5a42 35be 8d91 2ebe b898 55be
00000140: 6330 d4bd 1b02 9b3d 2d88 db3c e519 9b3c
00000150: f825 533d 749f 2dbd e033 52bd 494d 0fbe
00000160: afab 043e 49f0 18bd 59dc 463d 5854 93bd
00000170: e663 793c f854 aebd 451b cb3d 34f4 cdbc
00000180: 3b6c 10be a66c d53d 8f32 34bd ac84 2fbc
00000190: 8215 db3b 5084 c33d 7dc8 5dbd e2f8 983c
000001a0: f102 e13d 8c02 103e a102 d03c 6da5 c7bd
000001b0: bd3d 6abd 53a6 f7bd 1d6c 963d 8aa1 21bb
000001c0: ffb6 453c a10e bfbd bafb 0f3c 072b b5bd
000001d0: 15e0 f1bc 3a4d fc3d 77e2 f2b7 65e4 e2bd
000001e0: 72cc b43d 544a 32be 0687 2b3d bb2a c0bc
000001f0: 452d 12b9 ea0e 7abd 3311 96bd 32b2 8fbd
00000200: 8269 ad3c 0a31 11be e05e cb3d c6e7 81bd
00000210: c287 0c3e f559 7cbc 6ee1 d9bd ecb9 7a3d
00000220: ede9 fbbd 0801 903d debd 113e 5f3c 833c
00000230: aab6 033d 3f64 69bd 0283 b6bc a436 223d
00000240: fff3 17be 5d50 16be 1542 ad3d 4046 f13c
00000250: 6ecf 5ebc 8032 89bc c5c7 11bd f1f9 273c
00000260: f181 3d3d 5c30 ae3d b5dd 9ebd 2ab2 11be
00000270: 2474 11be 8be2 283c 0391 dbbc 49c6 03bb
00000280: 7486 843d d81f cebc 836e 0b3e 4f08 e4bd
00000290: 6d08 29bd 367e c7bd ab69 ea3a b2f2 15be
000002a0: c634 913c 7e51 b1bd 761f 263d 61ff 6ebd
000002b0: 7e1a 26bd 4088 e03c 64fc e33d 3439 0ebd
000002c0: 97e6 3e3d d783 eb3d f4f4 123d 082a c0bd
000002d0: fe70 e73d 70b4 f8bd bf81 c6bd d4a4 5dbc
000002e0: 6dcd 303d 2074 ed3c f56d 093e 6d36 8bbd
000002f0: c294 b13d 2132 d33d 3838 483d 0de1 0dbe
00000300: 2105 243e 0a51 fcbc fdbc d93d 3ab7 9f3d
00000310: ee84 ebbd 32ef abbd 493f f33d 066f eabd
00000320: a469 e0bc 5b5c 12bd b34c 383d 8ceb c83c
00000330: 27d1 853d 11d9 983d ef83 8e3c 1fda 8a3d
00000340: c214 203d 4806 c23a 2e58 f2bd 822b 1a3d
00000350: df64 eebd 3706 343e 8fe2 86bc 5988 8ebd
00000360: 0ff8 0c3e cc3c d3bd fcbf ffbd 0869 203e
00000370: 685c b4bd eb9a e43d 7208 48be cfda 82bc
00000380: 541f 0f3e d845 9d3d 721b 8ebd 70fe d23c
00000390: 1381 a5bd 1e37 e4bd b27e c43d 6eec 9c3c
000003a0: ffcb 5abd f0ad 403d 70a9 8d3d 9b44 0c3e
000003b0: d635 a4bd d1c6 d83d eca7 d13d 32d9 113e
000003c0: 7cda 1abe da1a c5bd 0238 a53c 08ca 0dbe
000003d0: 70e1 c1bd 2db0 293d 5e0e 133d 16e3 903c
000003e0: 9df5 733c b23c 483d e3dd d23d 71c8 6d3d
000003f0: a0bc ea3d 156b c8bd 408e 6e3d d63d 823d

critic.0.bias f4 [32]
-0.046461727 -0.09309138 -0.14639516 -0.13598247 -0.051015623 -0.0048772427 0.06383526 -0.13003667
0.12419419 0.0039373264 0.1461219 -0.026002642 0.118196964 0.08699378 0.081315 -0.1461555
-0.032949653 -0.021518067 -0.1277531 -0.087716594 -0.045391448 0.008885715 -0.1248551 -0.08288035
-0.061134882 -0.049203858 -0.12805891 -0.10647016 -0.055374835 0.10468665 0.05358987 0.117319204
00000000: a74e 3ebd b2a6 bebd 9de8 15be fd3e 0bbe
00000010: c2f5 50bd 47d1 9fbb 10bc 823d 5528 05be
00000020: 8659 fe3d b004 813b fba0 153e 7e03 d5bc
00000030: 4011 f23d cc29 b23d 7b88 a63d caa9 15be
00000040: 37f6 06bd a846 b0bc b5d1 02be c2a4 b3bd
00000050: 62ec 39bd 6495 113c 08b4 ffbd 2cbd a9bd
00000060: 9268 7abd fc89 49bd e021 03be 070d dabd
00000070: b9d0 62bd f465 d63d 0d81 5b3d 0d45 f03d

critic.2.weight f4 [64, 32, 4, 4]
0.02624566 0.031952772 -0.040886566 -0.024466852 -0.026713736 -0.007185597 0.013397661 -0.024364008
0.018125337 -0.037703533 0.02350267 -0.042157438 -0.022008436 -0.0014859188 0.043336373 -0.019481475
-0.028761115 0.03755835 0.0182703 0.002131798 0.019561116 -0.04708838 0.015247598 0.035747733
-0.041546192 -0.0151213175 -0.033671252 0.026770514 0.029914642 0.0018352107 -0.030201046 0.03303417
-0.010424432 -0.0054085734 -0.020124482 0.039976154 0.01334709 0.018892176 -0.013892838 -0.008979144
0.008619599 -0.0033512826 -0.04399778 0.03208315 -0.037770916 -0.001963374 0.042477462 -0.042070173
-0.011084505 0.019330947 -0.012951252 0.041148208 0.010932255 -0.02274579 -0.041152105 0.014297865
0.008728844 0.014313995 -0.047158018 0.021506857 0.034934193 0.018390002 0.030965773 0.0016245345
-0.014311853 -0.005592892 0.028723171 -0.022562366 0.032858804 -0.00611126 0.01871026 0.011859965
0.013996958 0.04281992 0.0025564933 -0.003820617 -0.033722114 -0.039165027 -0.01233584 0.026677053
0.043941725 -0.01918867 0.04228615 -0.023719957 -0.028754171 -0.043730002 0.0013179013 0.00050275394
0.042948775 -0.008530665 -0.006109329 0.035473827 0.017861482 0.0033148653 -0.003209161 0.023881469
0.029708253 -0.03390499 -0.0394915 0.043111272 -0.0016838772 -0.024082858 -0.026449403 -0.043707035
-0.019472318 0.024645625 0.0024026616 -0.038272284 0.019470854 -0.03718585 0.016474523 -0.004977659
-0.032561652 0.027493343 0.02599695 0.0033076266 0.02091777 -0.009215701 -0.022864426 -0.030364286
0.0041042655 -0.01871127 -0.0025323431 0.028053027 0.040701084 -0.0021004146 -0.024621751 0.015997916
0.008841281 -0.038946267 -0.040860206 0.015560453 0.03926828 0.030993601 0.014233189 -0.0028557545
-0.026797788 -0.03595579 -0.0019543737 0.016694171 -0.04050301 -0.0432278 -0.01870955 0.0011889205
-0.018437423 0.03542191 0.030529233 -0.01896841 -0.0074858335 0.026936611 0.016785346 0.00326843
0.03233693 -0.021764506 0.023867605 0.00041621065 -0.011176159 -0.030986652 -0.032797232 -0.033216752
-0.025329692 0.005874138 -0.022223743 0.010135838 0.012652631 -0.016524673 -0.010739837 0.0053912825
0.01031847 -0.01027241 -0.043683823 -0.020627968 -0.021152675 -0.01718198 0.004238967 0.028971279
-0.038082037 -0.042930856 0.03257817 -0.020612305 0.041458927 0.017721754 -0.023264498 0.025167173
0.028835788 -0.04149515 -0.048879728 0.041768376 -0.026198866 -0.0029547731 -0.036229882 -0.040571697
0.020238653 0.011805174 -0.04325597 0.014323116 0.042197756 -0.013601804 0.031997643 -0.033435073
-0.028687315 0.023055134 0.0008636285 -0.006760718 0.016506033 -0.033991043 0.014912893 0.027022973
0.027227765 0.029226711 0.04392138 -0.0035523523 0.03855275 -0.022481192 -0.025541108 -0.0073998645
0.0005514283 -0.009121826 -0.01607185 7.777674e-05 -0.017823586 -0.04049809 0.022584062 0.0054934677
0.023920555 -0.024256755 0.034366496 -0.03700964 0.035747886 -0.044211864 0.03657567 0.03593841
0.03536061 0.036638748 -0.03773505 -0.03522012 0.009499436 -0.0045027533 0.021772819 0.010126213
-0.025971705 0.017958235 -0.018180111 0.037985314 0.013942061 0.028287759 0.010731834 0.034266725
-0.02610797 -0.0012500715 0.023870941 -0.039378658 0.024541367 0.018098626 -0.002320284 -0.027732795
00000000: 2301 d73c e9e0 023d ac78 27bd b56e c8bc
00000010: c4d6 dabc 2875 ebbb dd81 5b3c 0797 c7bc
00000020: 967b 943c 056f 1abd ac88 c03c 47ad 2cbd
00000030: 094b b4bc 29c3 c2ba 7b81 313d 9d97 9fbc
00000040: 6e9c ebbc c9d6 193d 99ab 953c a3b5 0b3b
00000050: a23e a03c bfdf 40bd 10d1 793c 376c 123d
00000060: 572c 2abd 67bf 77bc deea 09bd d64d db3c
00000070: 8d0f f53c 748b f03a 2f68 f7bc d64e 073d
00000080: 3dcb 2abc 673a b1bb 19dc a4bc 09be 233d
00000090: c1ad 5a3c c4c3 9a3c c99e 63bc 421d 13bc
000000a0: 3839 0d3c 31a1 5bbb 0437 34bd 9f69 033d
000000b0: adb5 1abd f3ab 00bb d9fc 2d3d c651 2cbd
000000c0: c99b 35bc ef5b 9e3c 7d31 54bc 068b 283d
000000d0: 331d 333c 6155 babc 1c8f 28bd 9841 6a3c
000000e0: 6d03 0f3c 3f85 6a3c c428 41bd 262f b03c
000000f0: 2817 0f3d a1a6 963c efab fd3c 55ee d43a
00000100: 437c 6abc 9444 b7bb db4c eb3c b6d4 b8bc
00000110: f496 063d f740 c8bb 4246 993c 4c50 423c
00000120: 7f53 653c f163 2f3d d78a 273b 5163 7abb
00000130: 3320 0abd 826b 20bd 431c 4abc d689 da3c
00000140: 3dfc 333d 8f31 9dbc 3e34 2d3d 5b50 c2bc
00000150: de8d ebbc 3b1e 33bd 6ebd ac3a 3fcb 033a
00000160: 0eeb 2f3d 34c4 0bbc c430 c8bb 014d 113d
00000170: 3e52 923c 363e 593b ca50 52bb 12a3 c33c
00000180: b95e f33c f5df 0abd d7c1 21bd 7295 303d
00000190: 8bb5 dcba 6a49 c5bc 6bac d8bc 2606 33bd
000001a0: 6984 9fbc 9fe5 c93c f975 1d3b 66c3 1cbd
000001b0: 5781 9f3c 3150 18bd 94f5 863c a11b a3bb
000001c0: 5e5f 05bd b839 e13c 8ef7 d43c c4c4 583b
000001d0: be5b ab3c 74fd 16bc 2d4e bbbc 86be f8bc
000001e0: 137d 863b 6148 99bc abf5 25bb 76cf e53c
000001f0: 2eb6 263d 1ca7 09bb 8eb3 c9bc 100e 833c
00000200: 05db 103c 1f86 1fbd 085d 27bd 45f1 7e3c
00000210: c7d7 203d 4be6 fd3c 5232 693c 9c27 3bbb
00000220: 0987 dbbc 6146 13bd f314 00bb 37c2 883c
00000230: 7ce6 25bd a20f 31bd c544 99bc 8dd5 9b3a
00000240: 140a 97bc 9116 113d 7118 fa3c a463 9bbc
00000250: b94b f5bb 2baa dc3c 6c81 893c 2833 563b
00000260: bb73 043d 7a4b b2bc ff85 c33c d936 da39
00000270: 351c 37bc b8d7 fdbc 6456 06bd 4a0e 08bd
00000280: 3780 cfbc d77b c03b 910e b6bc c910 263c
00000290: fb4c 4f3c c05e 87bc 24f6 2fbc 5ba9 b03b
000002a0: cd0e 293c 9c4d 28bc cfed 32bd fcfb a8bc
000002b0: 6048 adbc 39c1 8cbc 08e7 8a3b 2d55 ed3c
000002c0: e9fb 1bbd 44d8 2fbd b070 053d 23db a8bc
000002d0: d6d0 293d 362d 913c 3095 bebc 632b ce3c
000002e0: 0839 ec3c d2f6 29bd 1c36 48bd 5115 2b3d
000002f0: 019f d6bc dea4 41bb c965 14bd 822e 26bd
00000300: 88cb a53c 7d6a 413c 2c2d 31bd 81ab 6a3c
00000310: 8ed7 2c3d 1ada 5ebc f60f 033d 37f3 08bd
00000320: a901 ebbc 1fde bc3c 2165 623a 0389 ddbb
00000330: a937 873c 313a 0bbd 3555 743c 485f dd3c
00000340: c30c df3c db6c ef3c e8e6 333d 95ce 68bb
00000350: 7de9 1d3d 7a2a b8bc 963b d1bc 907a f2bb
00000360: ba8d 103a b673 15bc 1da9 83bc 121c a338
00000370: c502 92bc 53e1 25bd 3602 b93c 8c02 b43b
00000380: 0af5 c33c 1ab6 c6bc e2c3 0c3d 6c97 17bd
00000390: 606c 123d 8017 35bd 5fd0 153d 2734 133d
000003a0: 49d6 103d 8312 163d 1190 1abd f942 10bd
000003b0: 86a3 1b3c d58b 93bb e95c b23c 6ae8 253c
000003c0: 9dc2 d4bc 261d 933c 75ee 94bc 7d96 1b3d
000003d0: 3e6d 643c bbbb e73c 93d4 2f3c 445b 0c3d
000003e0: 62e0 d5bc 70d9 a3ba fe8c c33c 844b 21bd
000003f0: fa0a c93c 9243 943c e80f 18bb e32f e3bc

critic.2.bias f4 [64]
0.035584852 0.010091734 0.04076924 -0.0046775253 -0.01147428 -0.022522504 -0.031082153 -0.016994238
0.035539206 -0.0350071 -0.033025328 0.005778288 0.012440373 -0.016184198 -0.012855475 -0.036561422
-0.01668786 -0.028610813 -0.006355964 -0.026176311 -0.029741943 0.008672724 0.03305055 -0.010162315
-0.055451896 -0.012746392 -0.020178754 0.010831307 0.019011779 -0.008603857 -0.040308684 -0.026182853
-0.04532787 0.01674151 -0.025458215 0.033888042 -0.057403844 -0.04738275 -0.050289698 -0.0070325723
-0.0016973721 -0.01829343 -0.060297634 -0.006609846 -0.02705947 -0.005890407 0.025463788 -0.014722305
-0.056906417 -0.053663768 -0.022149103 -0.0012870665 -0.02399073 -0.014751365 -0.041422307 0.039866287
-0.021887016 0.02415077 -0.018284988 -0.039091494 -0.036751647 -0.031363547 -0.012361751 -0.00019495722
00000000: 6cc1 113d cd57 253c a6fd 263d ed45 99bb
00000010: 9efe 3bbc 1d81 b8bc 00a0 febc 8037 8bbc
00000020: 8f91 113d 9b63 0fbd 9145 07bd cb57 bd3b
00000030: b5d2 4b3c b994 84bc c59f 52bc 6ec1 15bd
00000040: fbb4 88bc 3961 eabc b145 d0bb b46f d6bc
00000050: 60a5 f3bc 0a18 0e3c 0360 073d d77f 26bc
00000060: 8721 63bd 3ed6 50bc ea4d a5bc cb75 313c
00000070: 97be 9b3c 31f7 0cbc b81a 25bd 6c7d d6bc
00000080: b7a9 39bd 7e25 893c bf8d d0bc 30ce 0a3d
00000090: 4b20 6bbd 6a14 42bd 92fc 4dbd 7e71 e6bb
000000a0: 5b7a deba 1adc 95bc a7fa 76bd 6897 d8bb
000000b0: d2ab ddbc 5104 c1bb 6f99 d03c d335 71bc
000000c0: b416 69bd 8ace 5bbd 0972 b5bc c9b2 a8ba
000000d0: 3588 c4bc b6af 71bc 70aa 29bd d54a 233d
000000e0: 664c b3bc d6d7 c53c 66ca 95bc 671e 20bd
000000f0: e588 16bd 1077 00bd f188 4abc 6e6d 4cb9
