storage/multigrid-rat-0-v0/PPO_multigrid-rat-0-v0_seed_1_run_0_agent_0.pth (torch, 587061 bytes, 15 tensors)

actor.0.weight f4 [32, 3, 4, 4]
0.09101713 -0.07883375 -0.032923028 0.03695197 -0.14615041 0.10383942 -0.017842436 0.06392099
0.0333782 -0.026012171 0.06707307 -0.009815701 0.038627677 -0.04003715 -0.026971314 0.010075863
0.027054172 0.0021572006 0.12734817 0.04751398 -0.13347472 -0.05367536 -0.018409798 -0.086284846
-0.04659184 0.0032582257 0.096718036 0.06071088 -0.1410973 0.10013643 0.02808735 0.15750772
0.09527142 -0.13151139 -0.13723737 -0.06961864 0.12674451 -0.024042163 0.061770625 -0.06707531
0.14162661 -0.061069 0.10824232 0.0017091957 -0.076039545 0.07419165 -0.076617286 0.042450357
-0.0106533 -0.0353904 -0.16007867 -0.104607165 0.046446152 -0.018352037 0.15262224 0.11426244
0.02820746 -0.109564416 0.09626268 0.04182104 -0.10529843 0.09441969 0.09822273 0.14373812
-0.073630944 -0.035760712 -0.0062393066 -0.0029826392 -0.14948896 -0.1164919 0.07137982 -0.05726687
0.089643694 0.009559724 0.06324131 0.036248863 0.050887506 0.07758928 -0.14891712 0.07119043
-0.10148709 -0.10890399 0.0087778 -0.024596157 0.08477292 -0.08359103 -0.12831348 0.10504437
-0.021402637 0.0811837 0.046402298 -0.10823517 0.02899717 0.03466939 -0.096642464 -0.06848417
0.06411258 0.022708336 -0.070646256 -0.02378337 0.13457294 -0.010612232 0.0832999 0.05334131
-0.0937692 -0.13028881 0.1473114 0.014210438 0.095005244 0.011776031 0.061353806 0.12732418
0.14856546 -0.10658868 0.0034551122 0.1307255 0.096473284 0.115279794 -0.099016175 -0.13631472
-0.09520948 0.031600896 0.16156727 -0.114477836 0.069829285 -0.061222732 -0.13551396 0.024682192
0.083163105 0.13399938 -0.089639224 0.03132287 0.12454314 0.0956458 0.0899545 0.10257097
0.091295876 0.03728187 -0.09870093 -0.1212087 -0.06613845 -0.016807517 -0.08847203 0.052806426
0.04467072 -0.054275185 0.04315958 0.056985967 0.08812371 0.13440986 -0.030351697 0.12969396
-0.01668654 -0.033266693 -0.15759467 -0.09353616 -0.084322505 -0.0319047 0.11479921 -0.04875731
-0.107860744 0.056351453 0.055830445 0.10365483 -0.07469067 0.06033692 -0.04812573 -0.025019115
-0.11502526 -0.08636787 -0.058967154 0.035895616 0.026368948 0.0405214 0.14363481 0.1468064
0.09844502 0.0045962194 -0.09985149 0.1128012 -0.036093544 -0.011669022 -0.12434666 -0.028510798
-0.09309597 0.13263264 -0.12478286 -0.11250864 -0.004901168 -0.078045554 0.051645666 -0.055559225
-0.06213327 -0.020718835 0.116983466 -0.11505751 0.06701933 0.1123657 0.14356855 -0.086695
0.031272173 -0.1497879 0.13380916 -0.040976536 0.094217844 0.030760262 -0.0019541264 0.016621986
0.026223151 0.05204141 0.023196006 0.025364783 -0.13469443 0.110527605 0.14259134 0.119983904
0.10336956 -0.13193041 -0.07837383 0.1490819 -0.11421591 0.13653244 -0.12217472 -0.08668776
0.070563465 -0.10370496 -0.033067837 0.1050044 0.114328176 0.13650808 -0.029288612 -0.11218793
0.14211634 -0.030747678 -0.059385546 0.03518572 -0.1009388 0.094870225 0.090461075 -0.11452915
-0.11197388 -0.016227182 0.073141105 -0.020281548 -0.049615886 0.027007379 -0.15073349 -0.069338135
-0.08628358 0.1382904 0.13193963 -0.031026348 0.03129202 0.091878235 0.02101271 -0.08575806
00000000: 3067 ba3d 9773 a1bd 4cda 06bd f35a 173d
00000010: 74a8 15be c3a9 d43d 4d2a 92bc 02e9 823d
00000020: 94b7 083d 7a17 d5bc 9b5d 893d 09d2 20bc
00000030: 0e38 1e3d fffd 23bd f2f2 dcbc 3c15 253c
00000040: b6a0 dd3c d25f 0d3b 8f67 023e 059e 423d
00000050: 99ad 08be b2da 5bbd 25d0 96bc 1cb6 b0bd
00000060: 16d7 3ebd f587 553b 1b14 c63d f9ab 783d
00000070: d07b 10be 5414 cd3d 7117 e63c b449 213e
00000080: aa1d c33d ecaa 06be f487 0cbe 3894 8ebd
00000090: 50c9 013e 12f4 c4bc 3203 7d3d c85e 89bd
000000a0: 9106 113e 7d23 7abd 26ae dd3d 1707 e03a
000000b0: 9fba 9bbd cbf1 973d 86e9 9cbd 6de0 2d3d
000000c0: 2e8b 2ebc 86f5 10bd aaeb 23be 483c d6bd
000000d0: 523e 3e3d 0357 96bc 0149 1c3e 6d02 ea3d
000000e0: 5513 e73c 4f63 e0bd 5e25 c53d 8a4c 2b3d
000000f0: b4a6 d7bd 1c5f c13d 0029 c93d 1630 133e
00000100: d2cb 96bd d379 12bd 1973 ccbb 6278 43bb
00000110: a213 19be 4e93 eebd 952f 923d aa90 6abd
00000120: 1d97 b73d 63a0 1c3c a984 813d b079 143d
00000130: 6b6f 503d 21e7 9e3d bb7d 18be 4acc 913d
00000140: 77d8 cfbd 0e09 dfbd c3d0 0f3c e17d c9bc
00000150: 6d9d ad3d c631 abbd 9c64 03be 8121 d73d
00000160: 9554 afbc a443 a63d 5610 3e3d 67aa ddbd
00000170: 798b ed3c 7e01 0e3d 7cec c5bd 6e41 8cbd
00000180: 754d 833d d506 ba3c fcae 90bd 58d5 c2bc
00000190: 7dcd 093e edde 2dbc 2399 aa3d 6b7c 5a3d
000001a0: 110a c0bd 6e6a 05be cdd8 163e e6d2 683c
000001b0: 1c92 c23d 41f0 403c 214e 7b3d 4561 023e
000001c0: 8b21 183e 2a4b dabd 2a6f 623b e8dc 053e
000001d0: c993 c53d d017 ec3d fec8 cabd 1696 0bbe
000001e0: 30fd c2bd f16f 013d e471 253e 5b73 eabd
000001f0: a802 8f3d b0c4 7abd 2cc4 0abe 4f32 ca3c
00000200: 6b51 aa3d 2237 093e c594 b7bd 694c 003d
00000210: 7910 ff3d f2e1 c33d 113a b83d bb10 d23d
00000220: 55f9 ba3d e0b4 183d b723 cabd 443c f8bd
00000230: 9873 87bd ebaf 89bc d330 b5bd 8d4b 583d
00000240: a5f8 363d a84f 5ebd 1ac8 303d 1e6a 693d
00000250: 347a b43d bda2 093e 1fa4 f8bc 7ece 043e
00000260: 36b2 88bc a842 08bd 7f60 21be e38f bfbd
00000270: 47b1 acbd 81ae 02bd d91b eb3d bfb5 47bd
00000280: 18e6 dcbd c8d0 663d 77ae 643d fc48 d43d
00000290: 6cf7 98bd d923 773d 7c1f 45bd e3f4 ccbc
000002a0: 5d92 ebbd a3e1 b0bd 8b87 71bd 4807 133d
000002b0: b103 d83c c4f9 253d 0115 133e 6b54 163e
000002c0: 8b9d c93d e29b 963b f07e ccbd 5104 e73d
000002d0: d3d6 13bd 6d2f 3fbc 76a9 febd 7a8f e9bc
000002e0: 1aa9 bebd dad0 073e 288e ffbd ee6a e6bd
000002f0: fa99 a0bb 59d6 9fbd 688a 533d 1292 63bd
00000300: 757f 7ebd 8cba a9bc 0795 ef3d 46a3 ebbd
00000310: 6e41 893d fd1f e63d a203 133e 268d b1bd
00000320: 4017 003d 0062 19be 4505 093e 03d7 27bd
00000330: 49f5 c03d f2fc fb3c cd10 00bb d52a 883c
00000340: efd1 d63c 6029 553d 8d05 be3c cec9 cf3c
00000350: 56ed 09be 4c5c e23d 7703 123e 1fba f53d
00000360: 6bb3 d33d c418 07be 7582 a0bd eda8 183e
00000370: 08ea e9bd 29cf 0b3e bd36 fabd 5a89 b1bd
00000380: 9483 903d 4463 d4bd 2472 07bd 8c0c d73d
00000390: e424 ea3d c6c8 0b3e acee efbc c9c2 e5bd
000003a0: f286 113e 8ee2 fbbc 423e 73bd e71e 103d
000003b0: 00b9 cebd 524b c23d a843 b93d 428e eabd
000003c0: 9052 e5bd deee 84bc 01cb 953d 7d25 a6bc
000003d0: 073a 4bbd 943e dd3c e159 1abe 2701 8ebd
000003e0: 72b5 b0bd 009c 0d3e 2f1b 073e f82a febc
000003f0: 102c 003d a82a bc3d d922 ac3c eca1 afbd

actor.0.bias f4 [32]
-0.022471135 0.021592608 0.087737605 0.059365947 0.060939223 0.045077935 -0.09804661 -0.08636234
-0.10691604 0.10019233 -0.12712799 -0.08476208 0.10151655 0.09042957 -0.1342789 0.0822205
-0.013880742 0.040158395 -0.07360844 -0.013528696 0.030383581 0.11864142 0.09768429 -0.07929581
-0.09143735 0.0057276306 0.040040568 0.08389996 -0.14937426 0.008635552 0.00986979 -0.07273042
00000000: 6315 b8bc fbe2 b03c c6af b33d b529 733d
00000010: 689b 793d a4a3 383d a9cc c8bd bdde b0bd
00000020: ccf6 dabd a331 cd3d d72d 02be be97 adbd
00000030: e9e7 cf3d 2333 b93d 6880 09be 3963 a83d
00000040: 0d6c 63bc 217d 243d 06c0 96bd 77a7 5dbc
00000050: fde6 f83c 46fa f23d b30e c83d d765 a2bd
00000060: 8143 bbbd d9ae bb3b 9401 243d bed3 ab3d
00000070: 91f5 18be 217c 0d3c e6b4 213c b0f3 94bd

actor.2.weight f4 [64, 32, 4, 4]
0.034857586 -0.011731312 -0.04213461 -0.026387345 0.0014169981 -0.008372339 0.013044377 0.042992212
0.001809164 -0.010280246 0.057409193 0.032625843 0.029367844 0.0033523603 0.0020203935 -0.034273773
0.0044986913 0.042985644 0.002336305 -0.03943823 0.02425664 0.050698694 0.027602624 0.0020844091
0.00830246 0.011291021 -0.012503616 -0.006448415 0.036053892 0.004508822 0.04165237 -0.029347893
-0.0064588515 0.0005178899 -0.026302947 0.034121636 0.030865707 0.027304873 0.04535212 0.04120975
-0.025985423 -0.016196268 0.055169117 -0.028691072 -0.006923584 -0.030328803 0.031888675 0.0071643004
0.018397957 0.031712454 -0.0070120026 -0.044175945 0.0021641352 -0.006644752 0.016027799 0.02062946
-0.021976516 -0.023035934 -0.008524837 0.0125810765 0.010123889 0.019676877 0.020549934 -0.031932727
0.0035289766 0.004224921 -0.042690042 0.0093787005 -0.0005896818 0.043599762 -0.050192226 0.041571964
-0.021627476 0.026269203 0.042206638 -0.0054832576 -0.022610456 -0.0073372447 -0.02756209 0.005462679
0.018576892 0.009133564 -0.025450252 0.024147747 0.04055475 -0.008424423 0.026290562 -0.0029130164
0.017813487 -0.020275462 0.0013567278 -0.0012546432 -0.037237547 0.015920028 0.04137166 -0.008667199
0.00042633116 0.0067208363 -0.02135644 -0.0022611257 0.011385418 0.060250696 -0.00707722 -0.0008748105
-0.0360554 -0.003912666 0.06196525 -0.018428383 0.027106792 0.03032176 -0.017144553 -0.0061612474
-0.013544985 0.0011903271 0.014566725 0.04085929 -0.04053636 0.017250268 -0.026614007 -0.036089934
0.034034308 -0.026677588 -0.024781851 0.012123367 -0.00919601 -0.040451854 -0.023051998 -0.018669859
-0.0034467746 -0.029174907 -0.042563055 0.024580158 -0.037950076 0.021102337 0.047187995 -0.01626644
-0.02922593 0.032648753 0.049381353 -0.0048737666 -0.002607673 0.020649716 0.0055357777 0.008466106
0.023386564 0.02008743 -0.031649742 -0.017446952 0.030190604 0.0097323535 0.031008229 0.04244887
0.027356222 0.016830346 0.0098484885 -0.038874824 0.0068582613 0.011539291 -0.007684561 -0.020753223
0.00815757 -0.03653073 -0.018827902 0.033564243 -0.01623709 -0.01272338 0.019822964 -0.011180842
0.006490799 -0.04416996 0.025164787 -0.039316144 0.005886982 -0.04384641 -0.037931077 0.035553515
-0.024334952 -0.0015252522 0.001968716 0.040664885 0.014109015 0.0025650163 -0.04247142 -0.015152956
0.032147978 0.10264284 0.015969882 -0.033327356 -0.035271358 0.008923057 -0.033165053 0.030985689
0.036825392 -0.018303353 -0.028484793 0.04278147 -0.023578832 -0.031065272 -0.035384085 0.00767708
0.008582336 0.02990778 0.03722907 0.018847644 0.006308946 0.03991538 -0.018238248 -0.0077499887
0.03742353 -0.01487494 0.02369391 0.009477725 0.015599523 -0.010104575 -0.03764068 0.031691637
0.036386847 -0.040896855 -0.03435448 0.0018742176 0.02189729 -0.006255377 -0.01937598 0.034391228
-0.022186054 0.04015605 0.0007515784 0.023200748 0.010390794 0.007778638 0.032520756 -0.0022148695
0.031181913 0.05892152 -0.008427216 0.02896679 -0.03139809 0.023009792 -0.009468257 0.013713304
-0.0052881227 0.00873583 -0.013348171 0.018315751 0.020629218 -0.03782212 0.046012197 -0.035639107
-0.019725742 0.03173255 0.05456141 0.014370179 -0.024661206 0.0077772313 -0.026521878 0.020791482
00000000: d4c6 0e3d b034 40bc 5795 2cbd 462a d8bc
00000010: 91ba b93a 232c 09bc 15b8 553c 9a18 303d
00000020: 7821 ed3a 7a6e 28bc e725 6b3d ada2 053d
00000030: d594 f03c 46b3 5b3b 9468 043b a862 0cbd
00000040: c269 933b b711 303d b21c 193b fb89 21bd
00000050: dcb5 c63c 6fa9 4f3d e61e e23c 959a 083b
00000060: 0b07 083c f9fd 383c f7db 4cbc 3a4d d3bb
00000070: 3fad 133d bebe 933b ad9b 2a3d fe6a f0bc
00000080: c6a4 d3bb 01c3 073a 4779 d7bc 21c3 0b3d
00000090: 14da fc3c 78ae df3c 25c3 393d 8ecb 283d
000000a0: 62df d4bc 09ae 84bc 03f9 613d 8a09 ebbc
000000b0: 3bdf e2bb 1c74 f8bc b39d 023d 82c2 ea3b
000000c0: 50b7 963c ebe4 013d f1c4 e5bb d6f1 34bd
000000d0: 2ad4 0d3b 38bc d9bb bb4c 833c 1dff a83c
000000e0: 1808 b4bc dbb5 bcbc c2ab 0bbc dc20 4e3c
000000f0: abde 253c 6731 a13c 5658 a83c e4cb 02bd
00000100: 6746 673b 3571 8a3b c1db 2ebd 1fa9 193c
00000110: e094 1aba aa95 323d 5d96 4dbd 5d47 2a3d
00000120: 1b2c b1bc 8332 d73c dee0 2c3d e6ac b3bb
00000130: 9039 b9bc 456d f0bb e4c9 e1bc 4600 b33b
00000140: 912e 983c f2a4 153c 0c7d d0bc 7fd1 c53c
00000150: bd1c 263d 9706 0abc 4e5f d73c 4ee8 3ebb
00000160: 97ed 913c ba18 a6bc 3bd4 b13a d772 a4ba
00000170: 6686 18bd b86a 823c 5475 293d de00 0ebc
00000180: 3385 df39 763a dc3b b3f3 aebc 652f 14bb
00000190: e789 3a3c 6fc9 763d 06e8 e7bb 8a53 65ba
000001a0: d4ae 13bd d235 80bb 46cf 7d3d 1ff7 96bc
000001b0: 100f de3c 5765 f83c bc72 8cbc 4ae4 c9bb
000001c0: c9eb 5dbc c004 9c3a 46a9 6e3c 125c 273d
000001d0: 7409 26bd 6f50 8d3c 9e05 dabc 0ad3 13bd
000001e0: 8f67 0b3d f58a dabc 4f03 cbbc 16a1 463c
000001f0: ddaa 16bc d8b0 25bd 8bd7 bcbc 88f1 98bc
00000200: 48e3 61bb 3700 efbc 9956 2ebd 545c c93c
00000210: 8a71 1bbd cfde ac3c 3348 413d 3241 85bc
00000220: 386b efbc b3ba 053d 1a44 4a3d 1eb4 9fbb
00000230: 7ee5 2abb 9829 a93c 7865 b53b 6cb5 0a3c
00000240: 2e95 bf3c 658e a43c 29a3 01bd e9ec 8ebc
00000250: 4952 f73c 7374 1f3c f804 fe3c dede 2d3d
00000260: 281a e03c cbdf 893c 8e5b 213c 353b 1fbd
00000270: 44bb e03b 4b0f 3d3c c5ce fbbb aa02 aabc
00000280: 54a7 053c 3fa1 15bd f93c 9abc a97a 093d
00000290: a503 85bc b975 50bc c563 a23c da2f 37bc
000002a0: c5b0 d43b 8feb 34bd 6226 ce3c f709 21bd
000002b0: 96e7 c03b 4b98 33bd 9e5d 1bbd 90a0 113d
000002c0: 185a c7bc f9ea c7ba 9305 013b 3990 263d
000002d0: 8029 673c d519 283b 83f6 2dbd 1b44 78bc
000002e0: 99ad 033d 6936 d23d 45d3 823c 4482 08bd
000002f0: b378 10bd 0332 123c 14d8 07bd b3d5 fd3c
00000300: 39d6 163d eaf0 95bc f158 e9bc 9f3b 2f3d
00000310: 6528 c1bc 997c febc e7ee 10bd 0490 fb3b
00000320: ed9c 0c3c 2901 f53c 827d 183d 6066 9a3c
00000330: 46bb ce3b 4f7e 233d 6168 95bc 9ef3 fdbb
00000340: 6a49 193d 05b6 73bc bb19 c23c 7648 1b3c
00000350: 2495 7f3c a98d 25bc 1d2d 1abd 17cf 013d
00000360: 600a 153d 7683 27bd 49b7 0cbd 4fa8 f53a
00000370: f261 b33c e8f9 ccbb 60ba 9ebc d1dd 0c3d
00000380: 87bf b5bc ac7a 243d 9305 453a 7f0f be3c
00000390: 263e 2a3c f2e3 fe3b 7c34 053d 5827 11bb
000003a0: 3671 ff3c b157 713d 4e12 0abc c34b ed3c
000003b0: 499b 00bd 087f bc3c c020 1bbc c4ad 603c
000003c0: fd47 adbb ba20 0f3c 49b2 5abc ea0a 963c
000003d0: 9bfe a83c 5eeb 1abd 4977 3c3d 50fa 11bd
000003e0: e197 a1bc fef9 013d c97b 5f3d e670 6b3c
000003f0: 4c06 cabc 25d8 fe3b 6944 d9bc e652 aa3c

actor.2.bias f4 [64]
-0.04195374 -0.026171913 -0.040786453 0.033900112 -0.020582158 -0.02252217 0.04858641 -0.03255838
0.042589303 0.0023083214 -0.0021783665 0.024441583 0.02709013 -0.011463215 0.044159297 0.012978201
0.031876355 0.039602865 -0.023446847 0.0035989247 -0.042759288 -0.038575385 0.01692614 -0.0070813554
-0.028352452 0.005311241 -0.018738858 -0.026890457 0.022835933 -0.0056986054 0.017179046 -0.00340305
0.0018999315 0.019212479 -0.020683661 0.0017993333 0.042209476 0.0075756973 0.014948398 -0.036273133
0.028854959 -0.036350537 0.04304634 0.012887067 -0.029581761 0.0010541927 0.048221022 -0.027633784
0.0089118965 0.047107354 0.0012719411 0.028356904 0.028395658 -0.011393415 0.034498908 -0.0038711568
0.039914813 0.0026926682 0.02091163 -0.030588374 0.0076520513 0.0032146003 -0.03540097 -0.018762236
00000000: afd7 2bbd 7b66 d6bc b20f 27bd d8da 0a3d
00000010: ea9b a8bc 6a80 b8bc 8b02 473d f05b 05bd
00000020: 1f72 2e3d 3547 173b edc2 0ebb b739 c83c
00000030: 1fec dd3c 35d0 3bbc 61e0 343d 85a2 543c
00000040: c890 023d 9d36 223d 9a13 c0bc f0db 6b3b
00000050: 5d24 2fbd 3901 1ebd b0a8 8a3c b70a e8bb
00000060: 6743 e8bc eb09 ae3b 3c82 99bc 6049 dcbc
00000070: 6c12 bb3c 5ebb babb 12bb 8c3c b405 5fbb
00000080: 1f07 f93a 7d63 9d3c c870 a9bc 9bd7 eb3a
00000090: d8e3 2c3d 8e3d f83b 20ea 743c 2393 14bd
000000a0: 3c61 ec3c 4de4 14bd 5c51 303d 4724 533c
000000b0: 7355 f2bc d62c 8a3a 6883 453d 3f60 e2bc
000000c0: 3403 123c a4f3 403d 43b7 a63a bd4c e83c
000000d0: 039e e83c 72ab 3abc ba4e 0d3d 3cb3 7dbb
000000e0: b77d 233d 7a77 303b de4e ab3c 7894 fabc
000000f0: 0fbe fa3b 0bac 523b 9c00 11bd 43b3 99bc

actor.4.weight f4 [64, 64, 3, 3]
0.04166256 -0.044552058 0.0033654743 0.000373598 -0.021338996 0.007973674 0.002897452 -0.010197545
-0.056516808 -0.012106566 -0.02058901 -0.0265941 -0.05460753 -0.049897775 0.0154310595 -0.035913482
0.026988061 -0.0016752803 0.011598106 0.016330058 -0.04164128 -0.039010175 0.037063763 0.031095212
0.028308392 -0.034837976 -0.029203005 0.03738087 -0.025905257 -0.002657324 0.015676906 0.03968468
-0.0062574795 -0.03019483 -0.02876544 -0.019308299 0.038605087 0.02954614 -0.035285387 0.0037585206
-0.007751809 -0.014382459 0.053313132 -0.03778115 0.01759286 0.02076648 0.0781628 0.00072680344
-0.038486455 0.004204624 -5.9285863e-05 0.003889791 -0.034821555 0.05198082 0.040994026 -0.028021341
0.018262997 0.009090323 0.058507882 -0.006146035 -0.0054617953 0.016802048 0.004671262 0.03468186
0.010613783 -0.020040702 0.020111522 -0.013566657 0.0073854243 0.026053643 0.032235313 -0.026507359
0.023861133 -0.010760917 0.045409214 -0.019169677 0.059423152 -0.025792945 0.0031514824 -0.020148437
0.004302393 -0.05160955 -0.037186615 0.038717303 0.033510152 0.041724313 0.05626685 -0.004219659
0.0487664 0.07691347 -0.01918111 0.017394384 0.08373201 0.0016792465 0.056933902 0.0037459102
-0.033589065 0.019413631 0.039427195 0.024566442 0.031209692 -0.03192216 0.011025071 0.009991875
-0.02642256 -0.0048719896 0.005104353 0.021093454 -0.015303672 0.07321651 -0.008587231 0.0706665
-0.06441335 0.004611254 0.07923834 0.036397118 0.058489434 0.03706532 -0.033406805 -0.008758144
-0.035180986 0.008581966 0.013650357 -0.022561476 0.026041104 -0.026431719 -0.002170906 -0.02675985
0.003999245 0.009513804 0.011771724 0.0007697078 0.05832238 -0.043791223 0.045456268 -0.019536663
0.01654504 0.033121817 0.006298463 -0.0013048226 0.05466744 0.03241835 -0.0137720965 0.019436358
0.009136887 -0.016082283 0.020091474 0.026675649 0.0075516463 0.0629419 0.0072196014 -0.012367318
0.025279505 -0.015601996 -0.024128212 0.062063266 0.01563104 0.036808673 0.040732313 -0.034716602
0.02972845 -0.027504819 -0.017379189 -0.038937267 -0.012609676 -0.05015284 -0.0061327615 0.034736745
-0.053812526 -0.025500445 -0.017346907 -0.017807556 -0.0071741613 -0.00046346828 0.032022912 -0.03950233
-0.022329934 0.04630226 -0.0075464556 -0.039688773 0.019650554 -0.009915814 0.037560835 0.0015216917
-0.018877175 -0.0033082715 0.0042550415 -0.0042766733 -0.0379683 -0.032963894 0.024920927 0.032829978
0.008505296 0.016918087 0.0437839 0.031810056 0.019488065 0.07375101 -0.0388533 -0.09288408
0.0062822956 -0.06169775 0.033736717 0.028658597 -0.06848816 -0.036746938 0.0031372493 0.017378237
0.003286312 -0.03332928 0.032650705 0.027421629 0.01153719 -0.009228578 -0.01492856 0.0061274767
0.036236186 0.08542331 0.0026888573 0.03324974 0.009641792 -0.0881026 0.05679143 -0.0054051043
0.030214855 -0.022617215 -0.0663448 0.0045585246 0.023346562 0.029654961 0.06638987 0.024788588
-0.01704426 0.013203192 0.012279844 -0.05399344 0.002558259 -0.06062115 -0.010560953 0.008523707
-0.028665291 -0.008579989 0.0129442895 -0.021501895 -0.0018657929 0.004115566 0.022500422 -0.02702291
0.024103748 0.005262672 -0.047877293 0.05833677 0.056254227 0.021469653 -0.0051061115 -0.010649189
00000000: 5ca6 2a3d 387c 36bd 4a8f 5c3b 7adf c339
00000010: 1ecf aebc 03a4 023c 2ee3 3d3b 9b13 27bc
00000020: 2b7e 67bd 9e5a 46bc 49aa a8bc dfdb d9bc
00000030: 25ac 5fbd 9c61 4cbd 8ed2 7c3c 041a 13bd
00000040: 1116 dd3c 1495 dbba fb05 3e3c 9dc6 853c
00000050: 0c90 2abd 22c9 1fbd 2cd0 173d 63bb fe3c
00000060: 00e7 e73c 44b2 0ebd 243b efbc af1c 193d
00000070: 4337 d4bc 8026 2ebb db6c 803c 678c 223d
00000080: 8b0b cdbb 265b f7bc 80a5 ebbc 702c 9ebc
00000090: 5e20 1e3d bf0a f23c 6987 10bd 8351 763b
000000a0: e302 febb 68a4 6bbc df5e 5a3d 68c0 1abd
000000b0: e71e 903c 771e aa3c d113 a03d f486 3e3a
000000c0: f9a3 1dbd f1c6 893b b6a9 78b8 ddeb 7e3b
000000d0: 0ca1 0ebd d7e9 543d 5ae9 273d 038d e5bc
000000e0: 489c 953c 94ef 143c f6a5 6f3d ae64 c9bb
000000f0: dcf8 b2bb 73a4 893c 6311 993b 910e 0e3d
00000100: 6fe5 2d3c 662c a4bc ebc0 a43c af46 5ebc
00000110: 6e01 f23b 736e d53c 2d09 043d f625 d9bc
00000120: 6c78 c33c 8f4e 30bc 03ff 393d ba09 9dbc
00000130: b165 733d ba4b d3bc 1a89 4e3b 560e a5bc
00000140: 17fb 8c3b 8964 53bd fe50 18bd 0996 1e3d
00000150: f141 093d 1de7 2a3d 1278 663d 1145 8abb
00000160: 47bf 473d cf84 9d3d b421 9dbc ab7e 8e3c
00000170: b07b ab3d 2a1a dc3a 8633 693d f27d 753b
00000180: b094 09bd 5609 9f3c 697e 213d 903f c93c
00000190: 78ab ff3c d0c0 02bd 80a2 343c f6b4 233c
000001a0: 2074 d8bc 36a5 9fbb 6b42 a73b 2ecc ac3c
000001b0: 41bc 7abc 8af2 953d 75b1 0cbc 99b9 903d
000001c0: 25eb 83bd 011a 973b b647 a23d 2515 153d
000001d0: 9e92 6f3d ced1 173d 93d5 08bd 527e 0fbc
000001e0: f019 10bd 609b 0c3c bfa5 5f3c d8d2 b8bc
000001f0: 2754 d53c 5587 d8bc c245 0ebb 7937 dbbc
00000200: 190c 833b c9df 1b3c 30de 403c 37c6 493a
00000210: 73e3 6e3d 6d5e 33bd 5a30 3a3d 5a0b a0bc
00000220: 7789 873c beaa 073d 5663 ce3b 9506 abba
00000230: f7ea 5f3d 1bc9 043d 5ca4 61bc ff38 9f3c
00000240: e2b2 153c febe 83bc e096 a43c e486 da3c
00000250: cd73 f73b afe7 803d 6892 ec3b 4ba0 4abc
00000260: f716 cf3c 849f 7fbc 87a8 c5bc 0d36 7e3d
00000270: ab0c 803c b1c4 163d edd6 263d ff32 0ebd
00000280: 1489 f33c c951 e1bc cd5e 8ebc af7c 1fbd
00000290: d198 4ebc 106d 4dbd 55f5 c8bb 1e48 0e3d
000002a0: 866a 5cbd 4fe6 d0bc 1a1b 8ebc 27e1 91bc
000002b0: 3a15 ebbb a9fd f2b9 752a 033d 32cd 21bd
000002c0: 44ed b6bc 70a7 3d3d 4248 f7bb b290 22bd
000002d0: 33fa a03c f075 22bc 64d9 193d 8073 c73a
000002e0: 4ea4 9abc 96cf 58bb e06d 8b3b 5623 8cbb
000002f0: a684 1bbd 2605 07bd f926 cc3c ba78 063d
00000300: cc59 0b3c cd97 8a3c bf56 333d 434b 023d
00000310: 6fa5 9f3c c50a 973d a324 1fbd 023a bebd
00000320: b7db cd3b c8b6 7cbd 832f 0a3d 6fc5 ea3c
00000330: 8543 8cbd f583 16bd 4f9a 4d3b ce5c 8e3c
00000340: 2b5f 573b 4884 08bd bfbc 053d 53a3 e03c
00000350: 7b06 3d3c 7633 17bc eb96 74bc 00c9 c83b
00000360: 656c 143d 6bf2 ae3d 8a37 303b e130 083d
00000370: 9bf8 1d3c 236f b4bd 219e 683d 4d1d b1bb
00000380: 2585 f73c bd47 b9bc c8df 87bd ad5f 953b
00000390: 4a41 bf3c f6ee f23c 6af7 873d 7011 cb3c
000003a0: 67a0 8bbc 3352 583c 6631 493c 3a28 5dbd
000003b0: 77a8 273b e24d 78bd d907 2dbc 05a7 0b3c
000003c0: 79d3 eabc 1593 0cbc 4914 543c be24 b0bc
000003d0: 9f8d f4ba dfdb 863b ce52 b83c 265f ddbc
000003e0: 3975 c53c 7e72 ac3b fb1a 44bd 89f2 6e3d
000003f0: d56a 663d 20e1 af3c 2b51 a7bb f079 2ebc

actor.4.bias f4 [64]
0.043349892 0.018387007 0.019425984 0.0036469144 0.056225907 -0.0065486287 -0.014016034 -0.016790895
-0.0032085846 0.038233098 0.017089592 0.03398798 0.0012352621 0.002950479 -0.0228073 0.041950025
-0.024532283 0.02297244 -0.021586034 0.0107971355 0.06098899 -0.0095296 0.025093643 0.04286427
0.036449194 0.00048865273 0.029551337 -0.010367728 -0.020117389 0.006940169 0.03285077 -0.028694779
0.019698909 0.01867162 0.04406126 0.04627456 -0.0043118396 0.00419175 0.027115196 0.033356808
0.02003634 -0.01519655 0.025133075 0.047094304 -0.0035394977 0.009779181 0.04541542 -0.018607806
-0.021101069 0.034613825 0.010137637 -0.009835142 -0.0037732155 0.00032872055 0.015791448 0.043305773
-0.00036027998 -0.006898867 0.013676111 0.057760205 -0.0068537476 0.044375792 -0.016406834 0.03411392
00000000: a88f 313d 59a0 963c 3e23 9f3c 1201 6f3b
00000010: 234d 663d e195 d6bb 82a3 65bc 0f8d 89bc
00000020: 1e47 52bb 4f9a 1c3d 79ff 8b3c fb36 0b3d
00000030: 85e8 a13a d35c 413b 60d6 babc cad3 2b3d
00000040: edf7 c8bc b330 bc3c 32d5 b0bc 78e6 303c
00000050: 97cf 793d 0a22 1cbc 2f91 cd3c 7292 2f3d
00000060: c04b 153d ee18 003a a515 f23c 67dd 29bc
00000070: 39cd a4bc 5b6a e33b 878e 063d 5011 ebbc
00000080: 9b5f a13c 3af5 983c 9479 343d 658a 3d3d
00000090: 554a 8dbb f35a 893b b020 de3c 26a1 083d
000000a0: 4023 a43c f3fa 78bc e1e3 cd3c f5e5 403d
000000b0: ebf6 67bb dc38 203c 8505 3a3d 666f 98bc
000000c0: 26dc acbc 3ac7 0d3d 5518 263c 9323 21bc
000000d0: 0d48 77bb 2058 ac39 115d 813c 6561 313d
000000e0: f6e3 bcb9 e40f e2bb c411 603c f795 6c3d
000000f0: 6795 e0bb 64c3 353d a067 86bc 0abb 0b3d

actor.7.weight f4 [4, 576]
0.043566823 0.032903906 0.042291198 -0.013290614 -0.015148236 0.03345187 -0.023810135 -0.04673324
-0.061972294 -0.016469425 -0.04089406 -0.002942967 -0.04019665 0.006512629 0.042726357 -0.07476267
-0.004681066 -0.022510665 -0.014040566 0.0103617245 -0.048409022 -0.037277713 0.017130053 0.02975569
0.00760295 -0.030465228 -0.043663323 0.0051198006 0.004256148 -0.021518566 0.029312387 0.00038926792
0.0076386654 0.0640461 -0.028847877 -0.06009842 0.033161573 0.031628367 0.010421199 0.0018049638
0.025991594 -0.026928274 0.0074909013 -0.0316978 -0.006916412 -0.0338674 0.08287984 -0.02756628
0.018834759 -0.016344603 0.10858837 -0.011066775 0.0030968504 -0.052624036 -0.020101948 -0.02456377
-0.009788878 0.022912856 -0.061011422 0.022372808 -0.008078406 0.033984613 0.04052264 -0.021227306
-0.026663221 -0.043981038 -0.00014811069 -0.03310911 0.057629224 -0.046738625 -0.0073087863 -0.050251313
-0.061031308 -0.009716402 -0.007133867 -0.03100734 0.009655681 -0.030610573 -0.027623877 -0.012602941
-0.01328253 -0.0059022293 -0.020240711 0.017555067 0.0074453494 0.034970455 0.048229583 -0.05142954
-0.08644366 0.02204675 0.060450304 0.044226907 0.023876065 -0.008761384 -0.035884097 0.023948155
-0.026801098 -0.038898814 -0.0022936664 -0.050579242 0.018575689 -0.005077716 -0.02555102 -0.036945112
-0.063214965 -0.05679309 -0.03295654 -0.036321074 0.0018869455 0.045068353 -0.047289133 0.014228588
0.011541395 -0.012183179 0.024547638 -0.010195016 -0.040244967 0.016931813 0.008860658 -0.07393304
-0.030306485 0.03569531 -0.0012233435 -0.027028326 0.020697877 -0.014867726 0.031950668 0.0054095834
0.0091704 0.012735337 0.036429275 0.024141 0.0015231518 -0.0562356 -0.014359645 -0.029914258
-0.014974586 0.036029365 0.00460662 0.005617618 0.020443946 -0.025825832 0.06738045 0.016601948
0.030573646 -0.012524129 -0.015341786 -0.065805286 -0.015149931 -0.00030120256 -0.012295361 0.0021585575
-0.00702252 -0.034140788 0.015648535 -0.030279739 0.034854796 -0.074606374 0.014278191 -0.013935004
-0.025036301 -0.017446173 0.007909514 0.0005093347 -0.051153954 -0.010272436 0.024026698 -0.024602981
0.030518696 -0.005629238 0.000935583 0.02258671 -0.013898802 0.030734051 -0.027359117 0.042379715
0.0071454947 0.0023284159 -0.013455932 0.027560385 0.0463847 -0.023926819 -0.02189217 -0.0064942273
-0.0037227168 -0.04468786 0.022999749 0.03151992 -0.04133963 -0.03363582 -0.027839357 -0.037196867
-0.014736989 0.01303777 -0.027764753 0.009096885 -0.042206906 -0.02196381 0.018311804 0.041607052
0.02981822 -0.00832776 0.018813426 -0.012367556 0.040460188 -0.011506056 0.012483991 0.0052521457
0.0027869383 0.015626784 -0.009135351 -0.041554563 -0.02627258 -0.029794998 0.00012366666 0.03081479
0.04319289 -0.023795612 -0.0137712965 -0.022569245 -0.00715419 0.022542223 -0.018579232 -0.013061223
-0.0012545198 -0.03528373 -0.019812284 0.03991487 -0.016628368 -0.03471228 -0.0015413219 -0.04195856
-0.033494275 0.0019530754 -0.027636228 -0.043245148 0.013381277 0.028162122 -0.05589178 -0.012353775
-0.029852409 0.0029876004 -0.024093693 -0.016919825 0.005223491 0.03666541 -0.008995676 -0.0077416697
-0.057217643 0.008002694 -0.021914734 0.022817202 -0.01911859 0.028713856 -0.0011886477 -0.0011520982
00000000: 2073 323d 3fc6 063d 8939 2d3d e0c0 59bc
00000010: 4f30 78bc d404 093d 790d c3bc 5b6b 3fbd
00000020: a9d6 7dbd e3ea 86bc 8880 27bd cbde 40bb
00000030: 3ea5 24bd e467 d53b d501 2f3d 2c1d 99bd
00000040: a163 99bb 4968 b8bc 670a 66bc 39c4 293c
00000050: 8a48 46bd 84b0 18bd 5354 8c3c 34c2 f33c
00000060: 2b22 f93b 3792 f9bc 50d8 32bd 00c4 a73b
00000070: 2877 8b3b b447 b0bc 8820 f03c a816 cc39
00000080: c54d fa3b 9a2a 833d 6252 ecbc c329 76bd
00000090: 6ed4 073d bf8c 013d adbd 2a3c 8994 ec3a
000000a0: 53ec d43c af98 dcbc 3c76 f53b 8dd5 01bd
000000b0: 12a3 e2bb 8bb8 0abd e8bc a93d aed2 e1bc
000000c0: 5a4b 9a3c 1ee5 85bc 9463 de3d 6b51 35bc
000000d0: 87f4 4a3b 4d8c 57bd d7ac a4bc f639 c9bc
000000e0: 8861 20bc beb3 bb3c 1de7 79bd 2e47 b73c
000000f0: 4a5b 04bc 7333 0b3d 11fb 253d e3e4 adbc
00000100: d46c dabc 7625 34bd 294e 1bb9 6b9d 07bd
00000110: 9f0c 6c3d 0071 3fbd 8b7e efbb 52d4 4dbd
00000120: f7fb 79bd 8b31 1fbc 37c3 e9bb 1b03 febc
00000130: dd32 1e3c 06c3 fabc 784b e2bc 917c 4ebc
00000140: f89e 59bc 7d67 c1bb d9cf a5bc a5cf 8f3c
00000150: 1ef8 f33b 2e3d 0f3d 628c 453d c8a7 52bd
00000160: 6009 b1bd 639b b43c bd9a 773d 4627 353d
00000170: bd97 c33c e88b 0fbc 34fb 12bd ec2e c43c
00000180: fa8d dbbc 5d54 1fbd 5651 16bb 2e2c 4fbd
00000190: 0b2c 983c f862 a6bb 5f50 d1bc c253 17bd
000001a0: d976 81bd df9f 68bd 70fd 06bd 68c5 14bd
000001b0: 6253 f73a 9899 383d 40b2 41bd 061f 693c
000001c0: 1f18 3d3c f59b 47bc 2118 c93c ff08 27bc
000001d0: e8d7 24bd 96b4 8a3c 4b2c 113c 356a 97bd
000001e0: 4e45 f8bc 3f35 123d 9958 a0ba 826a ddbc
000001f0: 988e a93c c397 73bc b4de 023d e042 b13b
00000200: 723f 163c e0a7 503c dd36 153d 59c3 c53c
00000210: 7ea4 c73a 4d57 66bd b744 6bbc bf0e f5bc
00000220: f757 75bc 8793 133d 21f3 963b ff13 b83b
00000230: 107a a73c b290 d3bc c3fe 893d cf00 883c
00000240: 9575 fa3c 0132 4dbc 1d5c 7bbc ecc4 86bd
00000250: 6b37 78bc b9ea 9db9 7b72 49bc 9676 0d3b
00000260: 2b1d e6bb 36d7 0bbd 5b31 803c 370d f8bc
00000270: e7c3 0e3d 3acb 98bd 13ef 693c a54f 64bc
00000280: ee18 cdbc 47eb 8ebc e896 013c e084 053a
00000290: cf86 51bd b84d 28bc a3d3 c43c 318c c9bc
000002a0: 5802 fa3c 7975 b8bb ea41 753a c407 b93c
000002b0: cdb7 63bc fac5 fb3c 3a20 e0bc 5a96 2d3d
000002c0: c124 ea3b 5698 183b 4576 5cbc 51c6 e13c
000002d0: e2fd 3d3d 2d02 c4bc 3557 b3bc 87cd d4bb
000002e0: d3f8 73bb 9e0a 37bd f869 bc3c 081b 013d
000002f0: be53 29bd b7c5 09bd 5d0f e4bc be5b 18bd
00000300: 6973 71bc 5f9c 553c e872 e3bc 1a0b 153c
00000310: 26e1 2cbd 73ed b3bc a302 963c 286c 2a3d
00000320: 5745 f43c 2871 08bc 9d1e 9a3c 4aa1 4abc
00000330: 95b9 253d e683 3cbc a789 4c3c 311a ac3b
00000340: 11a5 363b be03 803c 70ac 15bc 1e35 2abd
00000350: 9839 d7bc a414 f4bc 84ac 0139 4c6f fc3c
00000360: 07eb 303d 04ef c2bc 01a1 61bc 23e3 b8bc
00000370: b26d eabb 78aa b83c 7933 98bc bdfe 55bc
00000380: b36e a4ba ac85 10bd 5f4d a2bc c67d 233d
00000390: 3738 88bc 772e 0ebd 2e06 caba bddc 2bbd
000003a0: 4b31 09bd 56fe ff3a 5f65 e2bc d321 31bd
000003b0: 253d 5b3c 40b4 e63c c7ee 64bd 7d67 4abc
000003c0: 0a8d f4bc 9ecb 433b 2360 c5bc 729b 8abc
000003d0: d229 ab3b 782e 163d 9a62 13bc d5ad fdbb
000003e0: 0c5d 6abd bb1d 033c 8786 b3bc 24eb ba3c
000003f0: 979e 9cbc 5239 eb3c 66cc 9bba 0002 97ba

actor.7.bias f4 [4]
-0.027109575 0.0065813507 -0.014788771 0.03000775
00000000: e614 debc 5fa8 d73b 9a4c 72bc d0d2 f53c

critic.0.weight f4 [32, 3, 4, 4]
0.0078124646 -0.07512769 0.08849135 0.008748296 0.1504822 0.075102605 -0.003819238 0.057800014
-0.11844544 -0.1446241 -0.07672175 0.03912975 -0.12029003 -0.11162863 0.003926252 0.09218579
0.019967727 -0.10479013 0.18789878 -0.17194346 0.1277248 -0.15478478 0.040259924 0.08450227
0.07315637 -0.009890913 -0.10088747 -0.0059578875 0.054670297 -0.1060828 -0.10515428 0.12524234
0.0106588695 -0.14145957 -0.07181204 0.11926798 0.0014921715 0.14188099 0.13777465 0.112204805
0.015690342 -0.059038218 -0.0013890538 0.056956347 -0.00851234 0.087725915 -0.11025097 0.09165426
0.18078803 0.06138286 0.12608868 0.00074178993 0.056453634 0.10764619 0.11635714 -0.086426415
-0.08180202 0.0955934 0.13673857 0.107002586 0.054664224 -0.15243448 0.09511324 -0.008009604
0.1063174 0.08160878 -0.060946718 -0.10942343 0.108174175 0.10657873 0.034208264 0.00036242002
-0.015385287 -0.101354964 -0.12994951 0.1411006 -0.07606845 -0.14948128 -0.17255366 -0.123488665
-0.103607915 0.07568761 0.026798332 0.018933246 0.05154988 -0.042388394 -0.051319003 -0.13994326
0.12956117 -0.03733853 0.048549984 -0.07193822 0.015221572 -0.085123 0.099173106 -0.02514086
-0.07987692 0.13733539 -0.039011955 -0.054253746 0.056017853 0.13361028 -0.025831874 -0.020369262
0.14039767 0.1482153 0.04238779 -0.11958418 -0.020689713 -0.113797106 0.13342746 -0.0024662935
0.073230006 -0.120518334 0.0056359316 -0.06464379 -0.00020268124 0.081877746 -0.020814944 -0.14980376
0.103202075 -0.1535439 0.047866736 0.008655325 0.011087682 -0.055384316 -0.056917585 -0.0701641
0.021168474 -0.14178863 0.09930205 -0.063430354 0.13723662 -0.015402307 -0.106387004 0.061212465
-0.12300477 0.07031447 0.14232585 0.016019998 0.032156624 -0.056980368 -0.022279266 0.03960289
-0.13820207 -0.16055676 0.0790214 -0.028277233 0.022331616 0.040873945 -0.05409136 -0.03488364
0.08465885 0.09394622 -0.058711775 -0.12846798 -0.0934207 0.045868658 0.046115372 -0.00201072
0.07490265 -0.025975944 0.054217238 -0.11007639 -0.013317489 -0.094647765 -0.05099713 -0.19156669
0.037111253 -0.09987431 -0.016833436 0.06914954 0.008080084 0.02500234 0.17899139 -0.034722522
0.046606626 0.11499756 0.035878137 -0.09383017 0.113008484 -0.12143791 -0.09692716 -0.013528068
0.04316466 0.028986037 0.13420852 -0.0679749 0.086709514 0.10312296 0.04888174 -0.13855381
0.09158095 -0.073667146 0.025501193 0.06877182 -0.16503136 -0.13730595 0.047132347 -0.13973852
-0.08986658 -0.09046602 -0.0070003546 0.0067506963 0.06735585 0.07790171 0.0069533107 -0.01460149
-0.014738712 -0.05249977 -0.11930622 0.016442932 -0.14426653 0.09688073 -0.013139218 -0.07552504
0.086349934 -0.14347902 -0.12663113 0.10050888 -0.1005782 0.10466948 -0.14792506 -0.050120715
0.13976794 0.07679337 -0.069388285 0.02575609 -0.080812596 -0.11143325 0.09594478 0.019155707
-0.053417202 0.04704088 0.06917083 0.13698046 -0.08018081 0.10584796 0.10237107 0.1424301
-0.11841449 -0.06502975 0.0072545633 -0.07339482 -0.076429896 0.098005034 0.04051241 0.021848245
0.037255876 0.07608026 0.11133444 0.09226425 0.12381233 -0.059125915 0.08784585 0.1152387
00000000: b4ff ff3b 8cdc 99bd f43a b53d 0355 0f3c
00000010: 0118 1a3e 65cf 993d 2e4c 7abb b5bf 6c3d
00000020: 8693 f2bd 5718 14be 4b20 9dbd 8446 203d
00000030: 9f5a f6bd 8d9d e4bd caa7 803b e7cb bc3d
00000040: 5c93 a33c 359c d6bd 8a68 403e f211 30be
00000050: 4aca 023e e77f 1ebe 97e7 243d 870f ad3d
00000060: 02d3 953d 7f0d 22bc 179e cebd 623a c3bb
00000070: f6ed 5f3d f041 d9bd 215b d7bd 873f 003e
00000080: 8aa2 2e3c c7da 10be 3112 93bd c542 f43d
00000090: f894 c33a 4049 113e cc14 0d3e a2cb e53d
000000a0: 0889 803c 0fd2 71bd e910 b6ba 0f4b 693d
000000b0: 5777 0bbc a5a9 b33d 43cb e1bd 3bb5 bb3d
000000c0: 7f20 393e 986c 7b3d 641d 013e ae74 423a
000000d0: ed3b 673d 9b75 dc3d a74c ee3d 5500 b1bd
000000e0: d187 a7bd 79c6 c33d 3205 0c3e 2c24 db3d
000000f0: 98e7 5f3d c917 1cbe bbca c23d b73a 03bc
00000100: f0bc d93d 8122 a73d 44a3 79bd 6419 e0bd
00000110: 6c8a dd3d f345 da3d f71d 0c3d 3103 be39
00000120: 9212 7cbc 3193 cfbd 7c11 05be ad7c 103e
00000130: c7c9 9bbd 9f11 19be e8b1 30be a0e7 fcbd
00000140: 6330 d4bd 1b02 9b3d 2d88 db3c e519 9b3c
00000150: f825 533d 749f 2dbd e033 52bd 494d 0fbe
00000160: afab 043e 49f0 18bd 59dc 463d 5854 93bd
00000170: e663 793c f854 aebd 451b cb3d 34f4 cdbc
00000180: 8396 a3bd a6a1 0c3e 00cb 1fbd 2d39 5ebd
00000190: fa72 653d 22d1 083e 5e9d d3bc 70dd a6bc
000001a0: 68c4 0f3e c0c5 173e d29e 2d3d 8de8 f4bd
000001b0: 797d a9bc 750e e9bd 35a1 083e 8aa1 21bb
000001c0: 9df9 953d 51d2 f6bd 9fad b83b f763 84bd
000001d0: d586 54b9 85af a73d 1a84 aabc 2866 19be
000001e0: 9c5b d33d 9d3a 1dbe e90f 443d 10cf 0d3c
000001f0: 1ca9 353c aada 62bd 6a22 69bd 32b2 8fbd
00000200: 8269 ad3c 0a31 11be e05e cb3d c6e7 81bd
00000210: c287 0c3e f559 7cbc 6ee1 d9bd ecb9 7a3d
00000220: ede9 fbbd 0801 903d debd 113e 5f3c 833c
00000230: aab6 033d 3f64 69bd 0283 b6bc a436 223d
00000240: d884 0dbe fe68 24be f9d5 a13d a8a5 e7bc
00000250: cbf0 b63c 706b 273d e78e 5dbd 26e2 0ebd
00000260: 9f61 ad3d e066 c03d c27b 70bd 1c8d 03be
00000270: 5a53 bfbd c6e0 3b3d 79e3 3c3d 49c6 03bb
00000280: 9066 993d 81cb d4bc e512 5e3d bb6f e1bd
00000290: 9931 5abc b0d6 c1bd 5ee2 50bd 0f2a 44be
000002a0: f801 183d e78a ccbd 46e6 89bc 469e 8d3d
000002b0: 5462 043c b5d1 cc3c 8549 373e 3439 0ebd
000002c0: 97e6 3e3d d783 eb3d f4f4 123d 082a c0bd
000002d0: fe70 e73d 70b4 f8bd bf81 c6bd d4a4 5dbc
000002e0: 6dcd 303d 2074 ed3c f56d 093e 6d36 8bbd
000002f0: c294 b13d 2132 d33d 3838 483d 0de1 0dbe
00000300: cb8e bb3d cdde 96bd e1e7 d03c 3dd8 8c3d
00000310: fbfd 28be ee99 0cbe d90d 413d 9d17 0fbe
00000320: f80b b8bd 4046 b9bd 3b63 e5bb f234 dd3b
00000330: ddf1 893d ef8a 9f3d 99d8 e33b 173b 6fbc
00000340: a47a 71bc 000a 57bd d256 f4bd 54b3 863c
00000350: 9bba 13be 6769 c63d e045 57bc dfac 9abd
00000360: 3cd8 b03d 2aec 12be 97ab 01be 9ad7 cd3d
00000370: f1fb cdbd f45c d63d ab79 17be 614b 4dbd
00000380: 541f 0f3e d845 9d3d 721b 8ebd 70fe d23c
00000390: 1381 a5bd 1e37 e4bd b27e c43d 6eec 9c3c
000003a0: ffcb 5abd f0ad 403d 70a9 8d3d 9b44 0c3e
000003b0: d635 a4bd d1c6 d83d eca7 d13d 32d9 113e
000003c0: 4c83 f2bd 512e 85bd b0b7 ed3b 0650 96bd
000003d0: 4787 9cbd ddb6 c83d 57f0 253d 17fb b23c
000003e0: 9e99 183d f8cf 9b3d 5003 e43d 0af5 bc3d
000003f0: 5291 fd3d 042e 72bd 86e8 b33d 4402 ec3d

critic.0.bias f4 [32]
-0.021563716 -0.043841884 -0.14044818 -0.15181844 -0.09999348 0.0082127685 0.045866456 -0.16675662
0.12337923 -0.023003062 0.14642417 -0.0023964716 0.07876085 0.077174425 0.07001738 -0.11837938
-0.03689336 -0.021726198 -0.113706544 -0.096884936 -0.032008853 -0.0022500362 -0.16348052 -0.06380759
-0.038522676 -0.03849174 -0.07446146 -0.15411952 -0.08186008 0.07996952 0.025991227 0.098014615
00000000: 64a6 b0bc 8c93 33bd a6d1 0fbe 4b76 1bbe
00000010: 62c9 ccbd d98e 063c 77de 3b3d 3fc2 2abe
00000020: 40ae fc3d eb70 bcbc 38f0 153e 1f0e 1dbb
00000030: 5e4d a13d a00d 9e3d 4665 8f3d e370 f2bd
00000040: 7e1d 17bd 24fb b1bc fade e8bd 9c6b c6bd
00000050: b71b 03bd 5875 13bb 7067 27be 8ead 82bd
00000060: f4c9 1dbd 84a9 1dbd 407f 98bd 82d1 1dbe
00000070: 42a6 a7bd 0fc7 a33d 8eeb d43c e3bb c83d

critic.2.weight f4 [64, 32, 4, 4]
0.02624566 0.031952772 -0.040886566 -0.024466852 -0.026713736 -0.026538923 0.029270519 -0.024364008
0.018125337 -0.051814236 -0.012881801 -0.042157438 -0.022008436 -0.0014859188 0.043336373 -0.019481475
-0.028761115 0.03755835 0.0182703 0.002131798 0.019561116 -0.056536254 0.0047131255 0.035747733
-0.041546192 0.026533388 -0.03923223 0.026770514 0.029914642 0.0018352107 -0.030201046 0.03303417
-0.010424432 -0.0054085734 -0.020124482 0.039976154 0.01334709 0.018892176 -0.0034121682 -0.008979144
0.008619599 0.026630545 -0.019663423 0.03208315 -0.037770916 -0.001963374 0.042477462 -0.042070173
-0.011084505 0.019330947 -0.012951252 0.041148208 0.010932255 -0.02274579 0.0014802577 0.014297865
0.008728844 0.007758584 -0.077102534 0.021506857 0.034934193 0.018390002 0.030965773 0.0016245345
-0.014311853 -0.005592892 0.028723171 -0.022562366 0.032858804 -0.008396566 0.018330483 0.011859965
0.013996958 0.04281992 -0.0076030865 -0.003820617 -0.033722114 -0.039165027 -0.01233584 0.026677053
0.043941725 -0.01918867 0.04228615 -0.023719957 -0.028754171 -0.042510152 -0.0083072735 0.00050275394
0.042948775 0.005489345 -0.018839777 0.035473827 0.017861482 0.0033148653 -0.003209161 0.023881469
0.029708253 -0.03390499 -0.0394915 0.043111272 -0.0016838772 -0.0130924005 -0.032479472 -0.043707035
-0.019472318 0.015134842 0.0035818778 -0.038272284 0.019470854 -0.03718585 0.016474523 -0.004977659
-0.032561652 0.027493343 0.02599695 0.0033076266 0.02091777 0.013230591 -0.035066612 -0.030364286
0.0041042655 -0.024343956 -0.011650331 0.028053027 0.040701084 -0.0021004146 -0.024621751 0.015997916
0.008841281 -0.038946267 -0.040860206 0.015560453 0.03926828 0.010492238 0.022520913 -0.0028557545
-0.026797788 -0.049993724 0.026974041 0.016694171 -0.04050301 -0.0432278 -0.01870955 0.0011889205
-0.018437423 0.03542191 0.030529233 -0.01896841 -0.0074858335 0.047504403 0.0040807175 0.00326843
0.03233693 -0.021764506 0.045922346 0.00041621065 -0.011176159 -0.030986652 -0.032797232 -0.033216752
-0.025329692 0.005874138 -0.022223743 0.010135838 0.012652631 -0.016524673 -0.0037560626 0.0053912825
0.01031847 -0.026024621 -0.081143886 -0.020627968 -0.021152675 -0.01718198 0.004238967 0.028971279
-0.038082037 -0.042930856 0.03257817 -0.020612305 0.041458927 0.0035068032 -0.05286833 0.025167173
0.028835788 -0.04149515 -0.06203478 0.041768376 -0.026198866 -0.0029547731 -0.036229882 -0.040571697
0.020238653 0.011805174 -0.04325597 0.014323116 0.042197756 -0.023150986 0.031524915 -0.033435073
-0.028687315 0.01363264 -0.00982457 -0.006760718 0.016506033 -0.033991043 0.014912893 0.027022973
0.027227765 0.029226711 0.04392138 -0.0035523523 0.03855275 -0.03147558 -0.02966057 -0.0073998645
0.0005514283 -0.022996489 -0.025217367 7.777674e-05 -0.017823586 -0.04049809 0.022584062 0.0054934677
0.023920555 -0.024256755 0.034366496 -0.03700964 0.035747886 -0.05916045 0.026476193 0.03593841
0.03536061 0.022398133 -0.04122304 -0.03522012 0.009499436 -0.0045027533 0.021772819 0.010126213
-0.025971705 0.017958235 -0.018180111 0.037985314 0.013942061 0.009787696 0.032381758 0.034266725
-0.02610797 -0.009248759 0.026062174 -0.039378658 0.024541367 0.018098626 -0.002320284 -0.027732795
00000000: 2301 d73c e9e0 023d ac78 27bd b56e c8bc
00000010: c4d6 dabc 2868 d9bc bac8 ef3c 0797 c7bc
00000020: 967b 943c 2a3b 54bd 310e 53bc 47ad 2cbd
00000030: 094b b4bc 29c3 c2ba 7b81 313d 9d97 9fbc
00000040: 6e9c ebbc c9d6 193d 99ab 953c a3b5 0b3b
00000050: a23e a03c 8f92 67bd 9070 9a3b 376c 123d
00000060: 572c 2abd 8c5c d93c fab1 20bd d64d db3c
00000070: 8d0f f53c 748b f03a 2f68 f7bc d64e 073d
00000080: 3dcb 2abc 673a b1bb 19dc a4bc 09be 233d
00000090: c1ad 5a3c c4c3 9a3c af9e 5fbb 421d 13bc
000000a0: 3839 0d3c 4d28 da3c 3015 a1bc 9f69 033d
000000b0: adb5 1abd f3ab 00bb d9fc 2d3d c651 2cbd
000000c0: c99b 35bc ef5b 9e3c 7d31 54bc 068b 283d
000000d0: 331d 333c 6155 babc 3505 c23a 9841 6a3c
000000e0: 6d03 0f3c b83b fe3b efe7 9dbd 262f b03c
000000f0: 2817 0f3d a1a6 963c efab fd3c 55ee d43a
00000100: 437c 6abc 9444 b7bb db4c eb3c b6d4 b8bc
00000110: f496 063d c091 09bc cf29 963c 4c50 423c
00000120: 7f53 653c f163 2f3d 5023 f9bb 5163 7abb
00000130: 3320 0abd 826b 20bd 431c 4abc d689 da3c
00000140: 3dfc 333d 8f31 9dbc 3e34 2d3d 5b50 c2bc
00000150: de8d ebbc 201f 2ebd 3b1b 08bc 3fcb 033a
00000160: 0eeb 2f3d f7df b33b e055 9abc 014d 113d
00000170: 3e52 923c 363e 593b ca50 52bb 12a3 c33c
00000180: b95e f33c f5df 0abd d7c1 21bd 7295 303d
00000190: 8bb5 dcba 8281 56bc 3209 05bd 2606 33bd
000001a0: 6984 9fbc 21f8 773c f0bd 6a3b 66c3 1cbd
000001b0: 5781 9f3c 3150 18bd 94f5 863c a11b a3bb
000001c0: 5e5f 05bd b839 e13c 8ef7 d43c c4c4 583b
000001d0: be5b ab3c 1fc5 583c 02a2 0fbd 86be f8bc
000001e0: 137d 863b fa6c c7bc 08e1 3ebc 76cf e53c
000001f0: 2eb6 263d 1ca7 09bb 8eb3 c9bc 100e 833c
00000200: 05db 103c 1f86 1fbd 085d 27bd 45f1 7e3c
00000210: c7d7 203d a3e7 2b3c c77d b83c 9c27 3bbb
00000220: 0987 dbbc 38c6 4cbd aaf8 dc3c 37c2 883c
00000230: 7ce6 25bd a20f 31bd c544 99bc 8dd5 9b3a
00000240: 140a 97bc 9116 113d 7118 fa3c a463 9bbc
00000250: b94b f5bb fa93 423d 8ab7 853b 2833 563b
00000260: bb73 043d 7a4b b2bc 1219 3c3d d936 da39
00000270: 351c 37bc b8d7 fdbc 6456 06bd 4a0e 08bd
00000280: 3780 cfbc d77b c03b 910e b6bc c910 263c
00000290: fb4c 4f3c c05e 87bc 4628 76bb 5ba9 b03b
000002a0: cd0e 293c 9631 d5bc c42e a6bd fcfb a8bc
000002b0: 6048 adbc 39c1 8cbc 08e7 8a3b 2d55 ed3c
000002c0: e9fb 1bbd 44d8 2fbd b070 053d 23db a8bc
000002d0: d6d0 293d 65d2 653b 768c 58bd 632b ce3c
000002e0: 0839 ec3c d2f6 29bd 2e18 7ebd 5115 2b3d
000002f0: 019f d6bc dea4 41bb c965 14bd 822e 26bd
00000300: 88cb a53c 7d6a 413c 2c2d 31bd 81ab 6a3c
00000310: 8ed7 2c3d 23a7 bdbc 4520 013d 37f3 08bd
00000320: a901 ebbc 705b 5f3c 3cf7 20bc 0389 ddbb
00000330: a937 873c 313a 0bbd 3555 743c 485f dd3c
00000340: c30c df3c db6c ef3c e8e6 333d 95ce 68bb
00000350: 7de9 1d3d 8aec 00bd b9fa f2bc 907a f2bb
00000360: ba8d 103a 2263 bcbc a794 cebc 121c a338
00000370: c502 92bc 53e1 25bd 3602 b93c 8c02 b43b
00000380: 0af5 c33c 1ab6 c6bc e2c3 0c3d 6c97 17bd
00000390: 606c 123d 3a52 72bd 9ae4 d83c 2734 133d
000003a0: 49d6 103d 4a7c b73c 7ed9 28bd f942 10bd
000003b0: 86a3 1b3c d58b 93bb e95c b23c 6ae8 253c
000003c0: 9dc2 d4bc 261d 933c 75ee 94bc 7d96 1b3d
000003d0: 3e6d 643c 935c 203c bca2 043d 445b 0c3d
000003e0: 62e0 d5bc 1b88 17bc 5780 d53c 844b 21bd
000003f0: fa0a c93c 9243 943c e80f 18bb e32f e3bc

critic.2.bias f4 [64]
0.018938426 -0.020624729 0.04076924 0.011991268 -0.027440175 -0.039165385 -0.033377837 -0.010382059
0.030992083 -0.03772519 -0.016159188 0.022652645 0.0035686684 -0.011086764 -0.01409896 -0.04737178
-0.037728604 -0.027009415 -0.0065315575 -0.025882011 -0.058541592 0.009529425 0.04016498 -0.011936922
-0.054066036 -0.014648964 -0.021527799 0.0034078618 -0.030003091 -0.0039658234 -0.06565216 -0.053981967
-0.018876148 0.016716281 -0.029127114 0.019683534 -0.042103272 -0.036358014 -0.032976907 0.012231286
0.0036396806 -0.012128386 -0.043898914 -0.0004323027 -0.020867145 0.010525481 0.028919669 -0.026993705
-0.038249165 -0.059363525 -0.009668814 -0.0015360832 0.0050525605 -0.0053066746 -0.042546093 0.061171867
-0.04078415 0.019960057 -0.019583665 -0.022063322 -0.03148345 -0.02235462 -0.008981868 -0.00019485356
00000000: c224 9b3c 31f5 a8bc a6fd 263d 0677 443c
00000010: 38ca e0bc e26b 20bd 33b7 08bd 8319 2abc
00000020: 1ce3 fd3c bb85 1abd 4660 84bc 0a92 b93c
00000030: 52e0 693b 42a5 35bc 53ff 66bc e908 42bd
00000040: 4f89 1abd d942 ddbc ad06 d6bb 8306 d4bc
00000050: 4fc9 6fbd 4e21 1c3c 0984 243d 1493 43bc
00000060: 5974 5dbd 3502 70bc 115b b0bc 6f56 5f3b
00000070: 0bc9 f5bc bdf3 81bb a474 86bd 321c 5dbd
00000080: 27a2 9abc 95f0 883c fc9b eebc 5d3f a13c
00000090: 7b74 2cbd 24ec 14bd cb12 07bd bb65 483c
000000a0: b587 6e3b 23b6 46bc 59cf 33bd b0a6 e2b9
000000b0: 93f1 aabc 1173 2c3c f1e8 ec3c e721 ddbc
000000c0: 28ab 1cbd 2b27 73bd f269 1ebc 6656 c9ba
000000d0: f38f a53b 9de3 adbb d044 2ebd 5a8f 7a3d
000000e0: 480d 27bd 4683 a33c ec6d a0bc 24be b4bc
000000f0: caf4 00bd 0921 b7bc af28 13bc 9b51 4cb9
