storage/multigrid-rat-10-v0/PPO_multigrid-rat-10-v0_seed_1_run_0_agent_0.pth (torch, 587061 bytes, 15 tensors)

actor.0.weight f4 [32, 3, 4, 4]
0.09347696 -0.06797115 0.022359367 0.013030974 -0.16861741 0.09570672 -0.0008602877 0.06882259
0.033630125 -0.012714466 0.10093107 -0.0051933373 0.035050817 -0.032647923 -0.018721439 -0.0047593107
0.046649314 0.010455817 0.1538099 0.059361584 -0.22345304 -0.058747735 -0.021580802 -0.088591054
-0.030128533 0.0155007895 0.09389324 0.069608465 -0.1410973 0.09738395 0.040469814 0.15554205
0.09527142 -0.13151139 -0.13723737 -0.06961864 0.12674451 -0.024042163 0.061770625 -0.06707531
0.14162661 -0.061069 0.10824232 0.0017091957 -0.076039545 0.07419165 -0.076617286 0.042450357
-0.011398201 -0.035285804 -0.12495441 -0.09164436 0.069860846 -0.00974187 0.1543235 0.11197462
0.020250866 -0.1274177 0.10416178 0.045480613 -0.103558555 0.11223722 0.112883486 0.1160445
-0.06559653 -0.023254367 -0.055993382 0.004787856 -0.13428257 -0.13877012 0.094800696 -0.035589438
0.08352738 0.0045157885 0.02516238 0.028341172 0.0444254 0.08137931 -0.13017237 0.081524625
-0.10148709 -0.10890399 0.0087778 -0.024596157 0.08477292 -0.08359103 -0.12831348 0.10504437
-0.021402637 0.0811837 0.046402298 -0.10823517 0.02899717 0.03466939 -0.096642464 -0.06848417
0.067662045 0.011383416 -0.059090793 -0.06336004 0.14255583 0.00040564887 0.07601506 0.0628668
-0.08455079 -0.12689002 0.15301588 -0.00050797005 0.12000741 0.03290198 0.040987648 0.09096397
0.15097511 -0.10609736 0.00740527 0.12927869 0.09768498 0.13122855 -0.110295855 -0.109871425
-0.08963303 0.030054204 0.15303716 -0.09734922 0.07660311 -0.07106761 -0.12906568 0.0151727265
0.083163105 0.13399938 -0.089639224 0.03132287 0.12454314 0.0956458 0.0899545 0.10257097
0.091295876 0.03728187 -0.09870093 -0.1212087 -0.06613845 -0.016807517 -0.08847203 0.052806426
0.033930145 -0.055788133 0.041545335 0.04859166 0.07740128 0.14030926 -0.028497163 0.12817782
-0.027427098 -0.036834188 -0.15850468 -0.08214718 -0.084322505 -0.03608763 0.10912873 -0.047599465
-0.107860744 0.05433359 0.0624194 0.09333793 -0.07469067 0.075215414 -0.029644534 -0.031300843
-0.11502526 -0.08689135 -0.043388788 0.04632905 0.026368948 0.039033186 0.15111344 0.15181422
0.09844502 0.0045962194 -0.09985149 0.1128012 -0.036093544 -0.011669022 -0.12434666 -0.028510798
-0.09309597 0.13263264 -0.12478286 -0.11250864 -0.004901168 -0.078045554 0.051645666 -0.055559225
-0.051593073 -0.01442916 0.12137121 -0.09828299 0.044181872 0.112888336 0.13161443 -0.06925947
0.040931605 -0.14394893 0.14234366 -0.039362617 0.08274648 0.015416318 0.0072920234 -0.007992732
0.0105658965 0.06493858 0.043399774 0.059482735 -0.16462524 0.16223986 0.17195468 0.12960197
0.10048201 -0.10791024 -0.0775059 0.16709468 -0.12067772 0.15159129 -0.09782576 -0.09665029
0.070563465 -0.10370496 -0.033067837 0.1050044 0.114328176 0.13650808 -0.029288612 -0.11218793
0.14211634 -0.030747678 -0.059385546 0.03518572 -0.1009388 0.094870225 0.090461075 -0.11452915
-0.12604257 -0.011950344 0.050424714 0.0046005016 -0.06350621 0.020892888 -0.15495986 -0.0877733
-0.09444116 0.12921368 0.11937385 -0.0326261 0.020783644 0.08386386 -0.005397866 -0.051370565
00000000: d970 bf3d 7534 8bbd fe2a b73c de7f 553c
00000010: 0baa 2cbe e301 c43d ee84 61ba dcf2 8c3d
00000020: bebf 093d 5650 50bc f3b4 ce3d df2c aabb
00000030: 7291 0f3d d4b9 05bd b45d 99bc fef3 9bbb
00000040: 5a13 3f3d e04e 2b3c 5880 1d3e 2225 733d
00000050: e0d0 64be 77a1 70bd 39ca b0bc 3a6f b5bd
00000060: 1dd0 f6bc 06f7 7d3c 194b c03d e28e 8e3d
00000070: d07b 10be 3d71 c73d adc3 253d 6a46 1f3e
00000080: aa1d c33d ecaa 06be f487 0cbe 3894 8ebd
00000090: 50c9 013e 12f4 c4bc 3203 7d3d c85e 89bd
000000a0: 9106 113e 7d23 7abd 26ae dd3d 1707 e03a
000000b0: 9fba 9bbd cbf1 973d 86e9 9cbd 6de0 2d3d
000000c0: 85bf 3abc d987 10bd 19e8 ffbd 0ab0 bbbd
000000d0: 3413 8f3d 5d9c 1fbc fb06 1e3e f352 e53d
000000e0: 25e5 a53c c979 02be c552 d53d e149 3a3d
000000f0: 8216 d4bd a1dc e53d 752f e73d bda8 ed3d
00000100: 7957 86bd f17f bebc 5159 65bd 72e3 9c3b
00000110: 5f81 09be c119 0ebe de26 c23d 3bc6 11bd
00000120: 6710 ab3d 2ef9 933b 5621 ce3c bf2b e83c
00000130: 69f7 353d 32aa a63d e84b 05be 62f6 a63d
00000140: 77d8 cfbd 0e09 dfbd c3d0 0f3c e17d c9bc
00000150: 6d9d ad3d c631 abbd 9c64 03be 8121 d73d
00000160: 9554 afbc a443 a63d 5610 3e3d 67aa ddbd
00000170: 798b ed3c 7e01 0e3d 7cec c5bd 6e41 8cbd
00000180: 6692 8a3d 8281 3a3c 3009 72bd e9c2 81bd
00000190: 28fa 113e 45ad d439 c9ad 9b3d 4fc0 803d
000001a0: f728 adbd 75ef 01be 32b0 1c3e 4b29 05ba
000001b0: 72c6 f53d 3ac4 063d aae2 273d 514b ba3d
000001c0: 3899 1a3e 9349 d9bd e8a7 f23b a261 043e
000001d0: 100f c83d c760 063e cbe2 e1bd 4504 e1bd
000001e0: 8691 b7bd 3c34 f63c c6b5 1c3e 075f c7bd
000001f0: 17e2 9c3d e58b 91bd cb29 04be 0797 783c
00000200: 6b51 aa3d 2237 093e c594 b7bd 694c 003d
00000210: 7910 ff3d f2e1 c33d 113a b83d bb10 d23d
00000220: 55f9 ba3d e0b4 183d b723 cabd 443c f8bd
00000230: 9873 87bd ebaf 89bc d330 b5bd 8d4b 583d
00000240: 56fa 0a3d 1982 64bd 712b 2a3d 0c08 473d
00000250: 9084 9e3d 3bad 0f3e e272 e9bc 0c41 033e
00000260: cbae e0bc 72df 16bd 0d4f 22be c83c a8bd
00000270: 47b1 acbd 9fd0 13bd e27e df3d a8f7 42bd
00000280: 18e6 dcbd e68c 5e3d 7cab 7f3d f527 bf3d
00000290: 6cf7 98bd 8a0a 9a3d 18d9 f2bc 5035 00bd
000002a0: 5d92 ebbd 18f4 b1bd 71b8 31bd 88c3 3d3d
000002b0: b103 d83c 43e1 1f3d 7bbd 1a3e 3075 1b3e
000002c0: 8b9d c93d e29b 963b f07e ccbd 5104 e73d
000002d0: d3d6 13bd 6d2f 3fbc 76a9 febd 7a8f e9bc
000002e0: 1aa9 bebd dad0 073e 288e ffbd ee6a e6bd
000002f0: fa99 a0bb 59d6 9fbd 688a 533d 1292 63bd
00000300: 4253 53bd 4968 6cbc 7891 f83d 9848 c9bd
00000310: 0df8 343d 0032 e73d efc5 063e e9d7 8dbd
00000320: e6a7 273d 5967 13be 89c2 113e b23a 21bd
00000330: fd76 a93d b994 7c3c edf1 ee3b f3f3 02bc
00000340: 951c 2d3c 85fe 843d f6c3 313d 2ba4 733d
00000350: 8593 28be 3522 263e e314 303e 61b6 043e
00000360: 83c9 cd3d 0b00 ddbd 6abb 9ebd de1a 2b3e
00000370: e125 f7bd bf3a 1b3e df58 c8bd 96f0 c5bd
00000380: 9483 903d 4463 d4bd 2472 07bd 8c0c d73d
00000390: e424 ea3d c6c8 0b3e acee efbc c9c2 e5bd
000003a0: f286 113e 8ee2 fbbc 423e 73bd e71e 103d
000003b0: 00b9 cebd 524b c23d a843 b93d 428e eabd
000003c0: 4e11 01be 60cb 43bc 258a 4e3d cebf 963b
000003d0: 8b0f 82bd 9027 ab3c ccad 1ebe 7dc2 b3bd
000003e0: 5e6a c1bd 9750 043e 477a f43d f2a2 05bd
000003f0: 7642 aa3c d1c0 ab3d 95e0 b0bb f169 52bd

actor.0.bias f4 [32]
-0.0035776915 0.029608214 0.085499965 0.06296538 0.073323146 0.04249826 -0.105748795 -0.08785516
-0.104214154 0.108523406 -0.12712799 -0.09419496 0.09809611 0.08531029 -0.11326029 0.081503555
-0.01368498 0.05532365 -0.08218323 -0.01564351 0.039747227 0.12428277 0.09015906 -0.079642326
-0.09460864 0.009229412 0.04929655 0.079955705 -0.14980765 0.0016798796 0.010403803 -0.065835655
00000000: b477 6abb ed8c f23c 9b1a af3d fef3 803d
00000010: 722a 963d a812 2e3d d392 d8bd 68ed b3bd
00000020: 3b6e d5bd 8541 de3d d72d 02be 4ae9 c0bd
00000030: 9de6 c83d 29b7 ae3d 03f5 e7bd 56eb a63d
00000040: f736 60bc 0d9b 623d ae4f a8bd d126 80bc
00000050: fdcd 223d f787 fe3d 50a5 b83d 841b a3bd
00000060: 2dc2 c1bd f636 173c 2eeb 493d d1bf a33d
00000070: 2d67 19be 682f dc3a b674 2a3c d8d4 86bd

actor.2.weight f4 [64, 32, 4, 4]
0.034857586 -0.011731312 -0.04213461 -0.026387345 0.0014169981 -0.01763938 0.0050872755 0.042992212
0.001809164 -0.008725297 0.08855414 0.032625843 0.029367844 0.0033523603 0.0020203935 -0.034273773
0.0044986913 0.042985644 0.002336305 -0.03943823 0.02425664 0.04224001 0.021030132 0.0020844091
0.00830246 0.016901128 -0.008936296 -0.006448415 0.036053892 0.004508822 0.04165237 -0.029347893
-0.0064588515 0.0005178899 -0.026302947 0.034121636 0.030865707 0.012068219 0.04404513 0.04120975
-0.025985423 -0.016226092 0.04959864 -0.028691072 -0.006923584 -0.030328803 0.031888675 0.0071643004
0.018397957 0.031712454 -0.0070120026 -0.044175945 0.0021641352 0.00922856 0.016027799 0.02062946
-0.021976516 -0.01602404 0.05911132 0.0125810765 0.010123889 0.019676877 0.020549934 -0.031932727
0.0035289766 0.004224921 -0.042690042 0.0093787005 -0.0005896818 0.05545614 -0.049571935 0.041571964
-0.021627476 0.018423783 0.039075784 -0.0054832576 -0.022610456 -0.0073372447 -0.02756209 0.005462679
0.018576892 0.009133564 -0.025450252 0.024147747 0.04055475 -0.0042217877 0.029310144 -0.0029130164
0.017813487 -0.00029513446 -0.018219152 -0.0012546432 -0.037237547 0.015920028 0.04137166 -0.008667199
0.00042633116 0.0067208363 -0.02135644 -0.0022611257 0.011385418 0.08779753 -0.0033209063 -0.0008748105
-0.0360554 -0.020664927 0.054403856 -0.018428383 0.027106792 0.03032176 -0.017144553 -0.0061612474
-0.013544985 0.0011903271 0.014566725 0.04085929 -0.04053636 0.16884717 -0.023293698 -0.036089934
0.034034308 -0.025514908 -0.024781851 0.012123367 -0.00919601 -0.040451854 -0.023051998 -0.018669859
-0.0034467746 -0.029174907 -0.042563055 0.024580158 -0.037950076 -0.007593637 0.03284948 -0.01626644
-0.02922593 0.03014609 0.027608592 -0.0048737666 -0.002607673 0.020649716 0.0055357777 0.008466106
0.023386564 0.02008743 -0.031649742 -0.017446952 0.030190604 0.0100114755 0.039833594 0.04244887
0.027356222 0.019962886 0.024136577 -0.038874824 0.0068582613 0.011539291 -0.007684561 -0.020753223
0.00815757 -0.03653073 -0.018827902 0.033564243 -0.01623709 -0.01272338 0.019822964 -0.011180842
0.006490799 -0.04416996 0.025164787 -0.039316144 0.005886982 -0.04384641 -0.037931077 0.035553515
-0.024334952 -0.0015252522 0.001968716 0.040664885 0.014109015 0.032230116 -0.03908138 -0.015152956
0.032147978 0.051028777 -0.019016465 -0.033327356 -0.035271358 0.008923057 -0.033165053 0.030985689
0.036825392 -0.018303353 -0.028484793 0.04278147 -0.023578832 -0.03190446 -0.031622063 0.00767708
0.008582336 0.03271346 0.043222588 0.018847644 0.006308946 0.03991538 -0.018238248 -0.0077499887
0.03742353 -0.01487494 0.02369391 0.009477725 0.015599523 -0.010104575 -0.03764068 0.031691637
0.036386847 -0.04452197 -0.025268639 0.0018742176 0.02189729 -0.006255377 -0.01937598 0.034391228
-0.022186054 0.04015605 0.0007515784 0.023200748 0.010390794 0.046633415 0.032520756 -0.0022148695
0.031181913 0.034062907 0.0006326269 0.02896679 -0.03139809 0.023009792 -0.009468257 0.013713304
-0.0052881227 0.00873583 -0.013348171 0.018315751 0.020629218 -0.03845293 0.05133647 -0.035639107
-0.019725742 0.028488752 0.054498684 0.014370179 -0.024661206 0.0077772313 -0.026521878 0.020791482
00000000: d4c6 0e3d b034 40bc 5795 2cbd 462a d8bc
00000010: 91ba b93a 7680 90bc 29b3 a63b 9a18 303d
00000020: 7821 ed3a 8cf4 0ebc df5b b53d ada2 053d
00000030: d594 f03c 46b3 5b3b 9468 043b a862 0cbd
00000040: c269 933b b711 303d b21c 193b fb89 21bd
00000050: dcb5 c63c dc03 2d3d 6247 ac3c 959a 083b
00000060: 0b07 083c 3c74 8a3c 8b69 12bc 3a4d d3bb
00000070: 3fad 133d bebe 933b ad9b 2a3d fe6a f0bc
00000080: c6a4 d3bb 01c3 073a 4779 d7bc 21c3 0b3d
00000090: 14da fc3c c7b9 453c ab68 343d 8ecb 283d
000000a0: 62df d4bc 95ec 84bc f227 4b3d 8a09 ebbc
000000b0: 3bdf e2bb 1c74 f8bc b39d 023d 82c2 ea3b
000000c0: 50b7 963c ebe4 013d f1c4 e5bb d6f1 34bd
000000d0: 2ad4 0d3b 6333 173c bb4c 833c 1dff a83c
000000e0: 1808 b4bc d944 83bc b61e 723d dc20 4e3c
000000f0: abde 253c 6731 a13c 5658 a83c e4cb 02bd
00000100: 6746 673b 3571 8a3b c1db 2ebd 1fa9 193c
00000110: e094 1aba fa25 633d f10b 4bbd 5d47 2a3d
00000120: 1b2c b1bc 79ed 963c ee0d 203d e6ac b3bb
00000130: 9039 b9bc 456d f0bb e4c9 e1bc 4600 b33b
00000140: 912e 983c f2a4 153c 0c7d d0bc 7fd1 c53c
00000150: bd1c 263d ec56 8abb d41b f03c 4ee8 3ebb
00000160: 97ed 913c 47bc 9ab9 5540 95bc d772 a4ba
00000170: 6686 18bd b86a 823c 5475 293d de00 0ebc
00000180: 3385 df39 763a dc3b b3f3 aebc 652f 14bb
00000190: e789 3a3c 31cf b33d 90a3 59bb 8a53 65ba
000001a0: d4ae 13bd 7e49 a9bc 94d6 5e3d 1ff7 96bc
000001b0: 100f de3c 5765 f83c bc72 8cbc 4ae4 c9bb
000001c0: c9eb 5dbc c004 9c3a 46a9 6e3c 125c 273d
000001d0: 7409 26bd 46e6 2c3e 6dd2 bebc 0ad3 13bd
000001e0: 8f67 0b3d a404 d1bc 4f03 cbbc 16a1 463c
000001f0: ddaa 16bc d8b0 25bd 8bd7 bcbc 88f1 98bc
00000200: 48e3 61bb 3700 efbc 9956 2ebd 545c c93c
00000210: 8a71 1bbd 0bd4 f8bb 2d8d 063d 3241 85bc
00000220: 386b efbc eff4 f63c 6a2b e23c 1eb4 9fbb
00000230: 7ee5 2abb 9829 a93c 7865 b53b 6cb5 0a3c
00000240: 2e95 bf3c 658e a43c 29a3 01bd e9ec 8ebc
00000250: 4952 f73c 2c07 243c 8d28 233d dede 2d3d
00000260: 281a e03c 3589 a33c 12ba c53c 353b 1fbd
00000270: 44bb e03b 4b0f 3d3c c5ce fbbb aa02 aabc
00000280: 54a7 053c 3fa1 15bd f93c 9abc a97a 093d
00000290: a503 85bc b975 50bc c563 a23c da2f 37bc
000002a0: c5b0 d43b 8feb 34bd 6226 ce3c f709 21bd
000002b0: 96e7 c03b 4b98 33bd 9e5d 1bbd 90a0 113d
000002c0: 185a c7bc f9ea c7ba 9305 013b 3990 263d
000002d0: 8029 673c ba03 043d cc13 20bd 1b44 78bc
000002e0: 99ad 033d 8d03 513d 6bc8 9bbc 4482 08bd
000002f0: b378 10bd 0332 123c 14d8 07bd b3d5 fd3c
00000300: 39d6 163d eaf0 95bc f158 e9bc 9f3b 2f3d
00000310: 6528 c1bc 40ae 02bd 2386 01bd 0490 fb3b
00000320: ed9c 0c3c 8dfe 053d 2b0a 313d 6066 9a3c
00000330: 46bb ce3b 4f7e 233d 6168 95bc 9ef3 fdbb
00000340: 6a49 193d 05b6 73bc bb19 c23c 7648 1b3c
00000350: 2495 7f3c a98d 25bc 1d2d 1abd 17cf 013d
00000360: 600a 153d ab5c 36bd 2d00 cfbc 4fa8 f53a
00000370: f261 b33c e8f9 ccbb 60ba 9ebc d1dd 0c3d
00000380: 87bf b5bc ac7a 243d 9305 453a 7f0f be3c
00000390: 263e 2a3c ae02 3f3d 7c34 053d 5827 11bb
000003a0: 3671 ff3c 8c85 0b3d dfd6 253a c34b ed3c
000003b0: 499b 00bd 087f bc3c c020 1bbc c4ad 603c
000003c0: fd47 adbb ba20 0f3c 49b2 5abc ea0a 963c
000003d0: 9bfe a83c d280 1dbd 3146 523d 50fa 11bd
000003e0: e197 a1bc 3e61 e93c 033a 5f3d e670 6b3c
000003f0: 4c06 cabc 25d8 fe3b 6944 d9bc e652 aa3c

actor.2.bias f4 [64]
-0.041000754 -0.026863698 -0.039543606 0.033900112 -0.010917993 -0.03264206 0.050002974 -0.035319347
0.041080073 0.0012611342 -0.0011204722 0.024441583 0.031458333 -0.01283719 0.03819822 0.016481329
0.037324384 0.040257018 -0.017184334 0.0049353736 -0.048956845 -0.03085611 0.018928451 -0.0070813554
-0.028489444 0.0066899247 -0.018014157 -0.03091119 0.009800188 -0.009272177 0.0205784 -0.0032350158
0.00013589904 0.024737177 -0.01905083 0.0017993333 0.042209476 0.0096851345 0.020166947 -0.027896373
0.030427845 -0.03792968 0.045263465 0.02610824 -0.029581761 0.0015788144 0.04862857 -0.025242977
0.012921998 0.039125502 0.0026754446 0.028356904 0.021558208 -0.008520816 0.036896624 -0.0015966529
0.04964642 -0.0073815524 0.0110030295 -0.030392189 0.009876471 0.00036860898 -0.035220604 -0.018763
00000000: 68f0 27bd 4211 dcbc 7af8 21bd d8da 0a3d
00000010: 62e1 32bc aeb3 05bd ebcf 4c3d 05ab 10bd
00000020: 9443 283d a44c a53a cfdc 92ba b739 c83c
00000030: 74da 003d 1453 52bc bd75 1c3d da03 873c
00000040: 74e1 183d 8be4 243d 29c6 8cbc eab8 a13b
00000050: f986 48bd f4c5 fcbc d70f 9b3c b70a e8bb
00000060: b262 e9bc 2837 db3b 6d92 93bc 7739 fdbc
00000070: f890 203c 54ea 17bc 0894 a83c 8f02 54bb
00000080: 1f80 0e39 9fa5 ca3c 7c10 9cbc 9bd7 eb3a
00000090: d8e3 2c3d 66ae 1e3c 2735 a53c ef86 e4bc
000000a0: d143 f93c 275c 1bbd 2f66 393d f3e0 d53c
000000b0: 7355 f2bc 38f0 ce3a c02e 473d 5cca cebc
000000c0: cab6 533c 1042 203d 8356 2f3b bd4c e83c
000000d0: d79a b03c e59a 0bbc ea20 173d c846 d1ba
000000e0: 0b5a 4b3d f3e0 f1bb 0d46 343c 0af9 f8bc
000000f0: ecd0 213c dc41 c139 7b43 10bd ddb4 99bc

actor.4.weight f4 [64, 64, 3, 3]
0.024075378 -0.042394467 0.022769466 -0.0048020035 -0.0021202904 0.012015523 -0.01461987 -0.021812622
-0.048582084 -0.01129873 -0.031855535 -0.023017382 -0.037270695 -0.04881177 0.018520633 -0.04837683
0.012630196 0.0029296083 0.011598106 0.020585177 -0.041656416 -0.036624767 0.03734781 0.027223757
0.031452365 -0.034837976 -0.026439624 0.03738087 -0.025905257 -0.002657324 0.015676906 0.03968468
-0.0062574795 -0.03019483 -0.02876544 -0.019308299 -0.0041117584 0.022365794 -0.03783088 -0.011794599
0.011672546 -0.010183494 0.053196967 0.015062456 0.040671714 0.017670497 0.013655654 -0.03516295
-0.016339486 -0.040229067 -0.015989184 0.010700334 -0.037768696 0.0355128 0.03253217 -0.01285429
0.00834405 0.03183521 0.060666215 -0.0066468176 0.01691527 0.005578648 0.022403529 0.006774049
-0.0010637003 -0.021347115 0.0027424856 -0.011714443 0.008474362 0.004145003 0.055666357 -0.03125022
-0.018487204 -0.004559733 -0.006200401 -0.007267454 0.02502357 -0.058644652 0.039613813 0.03112175
0.027707294 -0.0005833606 0.028566876 -0.0011024703 0.09278713 0.055092867 0.024755213 0.08044544
-0.0052807247 0.13734043 -0.01595086 0.008716124 0.074318565 0.029702507 0.015680302 0.012862343
-0.01651644 -0.09060445 0.050513037 0.024566442 0.031209692 -0.03192216 0.011025071 0.009991875
-0.02642256 -0.0048719896 0.005104353 0.021093454 -0.024885034 0.0997317 -0.080552265 0.0812166
0.006297683 -0.028403506 0.12619066 0.046937663 0.13957721 0.01443939 0.0033702964 -0.0039172815
-0.08670554 0.039263703 0.0034180735 -0.040956177 0.09111832 -0.03450165 -0.021637335 -0.045376994
-0.0019692422 -0.02086221 -0.0028866918 -0.0005270661 0.022449097 -0.05657565 0.018254224 -0.028444702
0.015954759 0.0365171 0.009102057 0.015614639 0.05388996 0.025041217 -0.025826575 0.026866253
0.009808655 0.006691676 -0.007623714 0.039583806 0.008041913 0.049334668 0.030965913 -0.010387479
0.04316923 -0.012981144 0.04602598 0.06147432 -0.010142677 0.07943101 0.020032046 -0.013033709
0.098091595 -0.038386267 -0.035416763 0.04696033 0.06736571 0.005677352 0.09833355 0.0938649
0.03209977 -0.146727 0.1306506 -0.027151816 -0.025633126 -0.01525787 0.02963563 -0.036561094
-0.03994563 0.019290622 0.05046251 -0.050720327 0.019650554 -0.018302377 0.045181282 0.009397373
-0.0273136 -0.005314968 0.0019766416 -0.013301602 -0.043585222 -0.013479404 0.04147983 0.00491696
0.027063563 -0.005995891 0.025222972 0.05164604 0.0012815481 0.07424195 -0.03938041 -0.018935883
0.027464919 -0.0019893872 0.050771244 0.04342271 0.013052035 -0.14822866 0.10060924 0.017378237
0.003286312 -0.03332928 0.032650705 0.027421629 0.01153719 -0.009228578 -0.01492856 0.0061274767
-0.00995627 0.09974025 -0.056126434 0.053792283 0.087946385 -0.09451612 0.10623917 0.024677588
0.112090774 0.004682713 -0.03835204 -0.010357107 -0.0071906038 0.011304482 0.04752608 0.014494773
-0.053577296 -0.010044692 0.030965943 -0.01729009 0.013358701 -0.044527598 0.0010014338 0.014937406
-0.008364342 -0.075078264 0.040367205 -0.020575013 0.0064796573 -0.027744448 0.03270716 -0.03257604
-0.0069451393 0.014719028 0.015327454 0.045746394 0.03250958 0.010738721 -0.029976118 0.019504493
00000000: ba39 c53c d2a5 2dbd 0887 ba3c 205a 9dbb
00000010: 92f4 0abb c2dc 443c 2e88 6fbc 62b0 b2bc
00000020: 02fe 46bd 4f1e 39bc f37a 02bd f38e bcbc
00000030: 28a9 18bd daee 47bd 95b8 973c c826 46bd
00000040: e2ee 4e3c acfe 3f3b fb05 3e3c 3fa2 a83c
00000050: eb9f 2abd da03 16bd 04fa 183d 5b04 df3c
00000060: 32d4 003d 44b2 0ebd e997 d8bc af1c 193d
00000070: 4337 d4bc 8026 2ebb db6c 803c 678c 223d
00000080: 8b0b cdbb 265b f7bc 80a5 ebbc 702c 9ebc
00000090: eebb 86bb 7838 b73c 8ef4 1abd 223e 41bc
000000a0: 353e 3f3c abd8 26bc 10e5 593d 85c8 763c
000000b0: 6297 263d b8c1 903c f7bb 5f3c 0707 10bd
000000c0: 63da 85bc 3cc7 24bd c0fb 82bc 7450 2f3c
000000d0: 59b3 1abd df75 113d 7440 053d cd9a 52bc
000000e0: 7bb5 083c a365 023d 237d 783d 8ccd d9bb
000000f0: e491 8a3c 17cd b63b 9b87 b73c d7f8 dd3b
00000100: dc6b 8bba 25e0 aebc 46bb 333b efed 3fbc
00000110: 0dd8 0a3c ced2 873b 6802 643d 3b00 00bd
00000120: 7a72 97bc d069 95bb bc2c cbbb d323 eebb
00000130: 3bfe cc3c 6035 70bd 1842 223d 0af3 fe3c
00000140: 68fa e23c abec 18ba 1505 ea3c c480 90ba
00000150: 2e07 be3d 0fa9 613d 72cb ca3c 94c0 a43d
00000160: ee09 adbb f8a2 0c3e 61ab 82bc 13ce 0e3c
00000170: 5534 983d ac52 f33c fa73 803c 94bc 523c
00000180: 7c4d 87bc d38e b9bd c2e6 4e3d 903f c93c
00000190: 78ab ff3c d0c0 02bd 80a2 343c f6b4 233c
000001a0: 2074 d8bc 36a5 9fbb 6b42 a73b 2ecc ac3c
000001b0: b3db cbbc 2240 cc3d 96f8 a4bd e454 a63d
000001c0: cb5c ce3b 78ae e8bc 2038 013e b541 403d
000001d0: 54ed 0e3e 3193 6c3c 31e0 5c3b 8a5c 80bb
000001e0: ad92 b1bd fad2 203d c201 603b aac1 27bd
000001f0: 3e9c ba3d 9a51 0dbd c840 b1bc 3add 39bd
00000200: 670e 01bb 3ae7 aabc a72e 3dbb cf2a 0aba
00000210: 2be7 b73c debb 67bd e289 953c dd04 e9bc
00000220: 8eb3 823c f492 153d cb20 153c 8bd4 7f3c
00000230: b8bb 5c3d 3d23 cd3c 4192 d3bc 9e16 dc3c
00000240: 7bb4 203c d945 db3b 59d0 f9bb a122 223d
00000250: 3ac2 033c 2613 4a3d 3aac fd3c 3f30 2abc
00000260: 38d2 303d ddae 54bc bd85 3c3d 7fcc 7b3d
00000270: 792d 26bc baac a23d 3f1a a43c 568b 55bc
00000280: 3fe4 c83d eb3a 1dbd 2b11 11bd 7a59 403d
00000290: 09f7 893d 1509 ba3b 1a63 c93d 3e3c c03d
000002a0: 0c7b 033d 9a3f 16be 45c9 053e 7c6d debc
000002b0: 90fc d1bc 25fc 79bc 6cc6 f23c 16c1 15bd
000002c0: 079e 23bd 5e07 9e3c c7b1 4e3d 1ec0 4fbd
000002d0: 33fa a03c deee 95bc 0210 393d 70f7 193c
000002e0: c5c0 dfbc 2f29 aebb 8b8a 013b f6ee 59bc
000002f0: 6b86 32bd b8d8 5cbc c1e6 293d 731e a13b
00000300: 68b4 dd3c 2e79 c4bb 68a0 ce3c cc8a 533d
00000310: 9ef9 a73a 2a0c 983d 5a4d 21bd 6d1f 9bbc
00000320: 1cfe e03c 6160 02bb 82f5 4f3d 03dc 313d
00000330: 34d8 553c 41c9 17be 380c ce3d ce5c 8e3c
00000340: 2b5f 573b 4884 08bd bfbc 053d 53a3 e03c
00000350: 7b06 3d3c 7633 17bc eb96 74bc 00c9 c83b
00000360: a01f 23bc 9e44 cc3d d5e4 65bd 4c55 5c3d
00000370: 3c1d b43d ab91 c1bd ec93 d93d a728 ca3c
00000380: d98f e53d 7271 993b 0717 1dbd dbb0 29bc
00000390: 289f ebbb 6f36 393c b5aa 423d 7c7b 6d3c
000003a0: de73 5bbd 7e92 24bc 4aac fd3c f2a3 8dbc
000003b0: 74de 5a3c 9262 36bd 8b42 833a 06bc 743c
000003c0: 980a 09bc a2c2 99bd 1558 253d ee8c a8bc
000003d0: 4e53 d43b 5348 e3bc f1f7 053d 746e 05bd
000003e0: 0d94 e3bb 1428 713c 0020 7b3c 9260 3b3d
000003f0: c428 053d 76f1 2f3c 7a90 f5bc e3c7 9f3c

actor.4.bias f4 [64]
0.049856603 0.023814064 0.013882993 0.007904486 0.05521993 -0.014527494 -0.015778 -0.013038618
0.0011308182 0.03580263 0.011053965 0.03798388 0.0051273913 -0.009147468 -0.025250113 0.044198368
-0.005195312 0.03115814 -0.016373822 0.009738215 0.06506193 -0.019216657 0.024375208 0.029985772
0.045279387 0.002451422 0.028060243 -0.0113754105 -0.013065005 0.014903805 0.028314643 -0.024628248
0.016302392 0.01820882 0.050781686 0.048861194 0.00064158323 0.0057540145 0.027789967 0.033410233
0.031200547 -0.011943935 0.023269527 0.045286845 -0.0038622024 0.0055727866 0.054189008 -0.021498585
-0.01591265 0.03708461 0.01755403 -0.0014539767 -0.0062056803 0.008584428 0.02039626 0.045319036
0.00813808 0.0011701575 0.0027217444 0.05437918 -0.0017262454 0.048610393 -0.014365264 0.0250683
00000000: 7036 4c3d b615 c33c 7e75 633c d181 013c
00000010: 4b2e 623d ba04 6ebc dd40 81bc ed9f 55bc
00000020: f637 943a c7a5 123d b11b 353c fc94 1b3d
00000030: ad03 a83b 43df 15bc 53d9 cebc 5909 353d
00000040: 703d aabb 5b3f ff3c 6522 86bc 098d 1f3c
00000050: 303f 853d 406c 9dbc 84ae c73c b9a4 f53c
00000060: e176 393d 09a8 203b 98de e53c ee5f 3abc
00000070: 9a0e 56bc 172f 743c 1cf4 e73c 2ec1 c9bc
00000080: 988c 853c aa2a 953c 7500 503d ad22 483d
00000090: ec2f 283a 2c8c bc3b c9a7 e33c 2bd9 083d
000000a0: 4a98 ff3c 7fb0 43bc bc9f be3c b37e 393d
000000b0: 011d 7dbb ec9b b63b 4bf5 5d3d cd1d b0bc
000000c0: 3f5b 82bc 08e6 173d 78cd 8f3c 5d93 beba
000000d0: 0559 cbbb b3a5 0c3c 0f16 a73c 74a0 393d
000000e0: 9555 053c f85f 993a 4b5f 323b b4bc 5e3d
000000f0: 2f43 e2ba b11b 473d 495c 6bbc 095c cd3c

actor.7.weight f4 [4, 576]
0.052833553 -0.061568074 0.053179927 -0.023829954 0.0016652256 0.03157884 -0.021023143 -0.022719791
-0.017428825 -0.016469425 -0.018810645 -0.010014405 0.0016557578 -0.008658489 0.02596428 -0.0018357696
-0.0038709485 -0.020057086 -0.053101677 0.03235117 -0.025279254 -0.044666205 0.017130053 0.024196634
0.010396957 -0.021145811 -0.00589933 0.016205506 -0.0014914138 -0.0025374345 0.035467234 -0.008603311
0.005077672 0.039833054 -0.06357193 -0.015252221 0.037078608 0.030239876 -0.008157423 -0.0011402706
0.042798012 -0.049950965 0.014022016 -0.018208478 -0.012192043 0.0023222563 0.048227437 -0.02756628
0.014871508 0.0045243544 0.035633665 -0.015893513 -0.016579747 -0.054355353 -0.015515341 -0.018594017
-0.008651658 0.023654986 -0.048133176 0.025727183 0.0060868417 0.033697512 0.06505115 -0.0099630235
-0.014282416 -0.014776651 -0.006022377 -0.0472417 0.026376342 -0.0039312704 -0.0073087863 -0.031654753
-0.016728375 -0.009716402 0.030331288 -0.035391785 0.0012539146 -0.043771032 -0.030827403 -0.024397347
0.004626049 -0.017583542 -0.008477007 0.038901 0.008938642 0.025929725 0.03826538 -0.028465422
-0.028441504 0.045595884 -0.010351286 0.05088226 0.041696265 0.039916646 -0.003419763 0.005405446
-0.04795989 -0.075364925 0.035567656 -0.019980272 0.049469832 0.00013209607 -0.024005257 -0.03844816
0.010121344 -0.039898742 -0.023055937 -0.064783305 -0.01976512 0.044101913 -0.0722287 0.014228588
0.024968397 -0.013437003 0.023106199 -0.022872994 -0.03758257 0.026391152 -0.0040511005 -0.05079934
-0.048466563 0.0073219333 -0.011954446 -0.011181454 0.089392684 0.038914062 -0.02143227 0.0060197636
-0.035791807 0.012735337 0.026639536 0.0210007 0.008141501 -0.032334518 -0.010901667 -0.0403524
0.012051745 0.040108483 0.015004753 0.009903118 0.014541768 -0.061015237 0.009288359 0.014950987
0.020008324 0.0054996717 -0.005774812 -0.06820604 -0.013283734 0.00092638395 0.0019676914 0.0021585575
-0.0026319227 -0.040474914 0.01731428 -0.0122853955 0.027150964 -0.05218266 0.009367008 -0.012237563
-0.039998055 -0.033753727 -0.020677298 0.0031509385 -0.024493648 -0.030036695 0.010518383 -0.03209349
0.022294564 -0.0027046702 0.0047631087 0.04476266 -0.018191637 0.024751259 -0.07279322 0.057494737
0.004746819 0.00259285 0.009905106 0.038110454 0.05758947 -0.03867636 -0.031296685 -0.025645094
-0.054093733 -0.029701214 0.03999888 0.039691053 -0.06382163 -0.02796591 0.0016034466 -0.037196867
-0.0032590707 0.01095282 -0.055441722 0.020891005 -0.037005465 -0.02196381 0.018585123 0.058592536
0.061426744 0.014289896 0.0122956745 0.0030192211 0.028681332 -0.011039277 0.004284971 -0.007106547
-0.015371958 0.014678141 0.006798621 -0.013759363 0.02047774 0.007947809 0.0021602542 0.055689465
0.047169123 -0.032514077 -0.036827702 -0.073345825 0.006526057 0.02755981 -0.020872813 0.008752787
-0.002676814 -0.027945796 0.012891991 0.037129875 -0.02886695 -0.030639037 -0.0072184675 -0.050637655
-0.044230014 -0.020420302 -0.03642828 -0.052158143 0.015062109 0.011304748 0.09058508 -0.029681886
-0.003568112 -0.008028845 -0.010418794 0.017779661 0.03477442 0.03840668 0.0035967769 -0.069209225
-0.0029642403 0.023945183 -0.012446591 0.033983573 -0.036171976 0.031302247 -0.0063656825 -0.0011520982
00000000: ff67 583d ce2e 7cbd 32d3 593d 0937 c3bc
00000010: b343 da3a d058 013d ba38 acbc db1e babc
00000020: e5c6 8ebc e3ea 86bc c818 9abc 7513 24bc
00000030: 0306 d93a 56dc 0dbc 0bb3 d43c 359e f0ba
00000040: bdaf 7dbb c24e a4bc 2581 59bd a982 043d
00000050: 7016 cfbc e9f3 36bd 5354 8c3c 0538 c63c
00000060: 0058 2a3c fb39 adbc 2b4f c1bb 69c1 843c
00000070: 8b7b c3ba 164b 26bb 1746 113d e7f4 0cbc
00000080: 9a62 a63b fc27 233d 0032 82bd 74e4 79bc
00000090: bddf 173d 9eb9 f73c b6a6 05bc 2275 95ba
000000a0: f84c 2f3d 6299 4cbd 99bc 653c f229 95bc
000000b0: 22c1 47bc ff30 183b 228a 453d aed2 e1bc
000000c0: a0a7 733c 0941 943b 9bf4 113d 1d33 82bc
000000d0: 40d2 87bc b8a3 5ebd 0f34 7ebc 7b52 98bc
000000e0: afbf 0dbc 1ac8 c13c 4b27 45bd d0c1 d23c
000000f0: 2174 c73b 6706 0a3d 8a39 853d f33b 23bc
00000100: cb00 6abc c419 72bc 5c57 c5bb 8380 41bd
00000110: 3313 d83c e3d1 80bb 8b7e efbb 6aa8 01bd
00000120: f209 89bc 8b31 1fbc 5279 f83c faf6 10bd
00000130: 645a a43a 4149 33bd c089 fcbc f2dc c7bc
00000140: 1d96 973b 5c0b 90bc 25e3 0abc a856 1f3d
00000150: 6273 123c 936a d43c 29bc 1c3d 5130 e9bc
00000160: 28fe e8bc c0c2 3a3d 7198 29bc eb69 503d
00000170: b4c9 2a3d a37f 233d 1a1e 60bb 2b20 b13b
00000180: 9771 44bd ed58 9abd 64af 113d abad a3bc
00000190: e1a0 4a3d 4583 0a39 aca6 c4bc d17b 1dbd
000001a0: fed3 253c dd6c 23bd cedf bcbc 1cad 84bd
000001b0: 76ea a1bc 35a4 343d a4ec 93bd 061f 693c
000001c0: 868a cc3c e026 5cbc 3649 bd3c 2560 bbbc
000001d0: 2ef0 19bd 4232 d83c 18bf 84bb f812 50bd
000001e0: e084 46bd d4ec ef3b 95dc 43bc 6b32 37bc
000001f0: 8313 b73d 5a64 1f3d ba92 afbc 7041 c53b
00000200: 6e9a 12bd e0a7 503c 283b da3c a909 ac3c
00000210: ee63 053c 3371 04bd e89c 32bc 8f48 25bd
00000220: af74 453c cb48 243d 7fd6 753c b040 223c
00000230: 9840 6e3c 1deb 79bd 342e 183c fcf4 743c
00000240: 7fe8 a33c 9736 b43b a23a bdbb 9caf 8bbd
00000250: 05a4 59bc 93d8 723a 62f4 003b 9676 0d3b
00000260: 567c 2cbb 06c9 25bd add6 8d3c af48 49bc
00000270: b36b de3c 7cbd 55bd 1478 193c 0f80 48bc
00000280: 00d5 23bd 5941 0abd 7063 a9bc fa7f 4e3b
00000290: e7a6 c8bc 840f f6bc 4c55 2c3c 7774 03bd
000002a0: 17a3 b63c d640 31bb da13 9c3b 0d59 373d
000002b0: a106 95bc 27c3 ca3c 9d14 95bd 9a7f 6b3d
000002c0: 348b 9b3b ceec 293b 0749 223c b519 1c3d
000002d0: f0e2 6b3d 1a6b 1ebd f430 00bd a915 d2bc
000002e0: 6491 5dbd f64f f3bc ded5 233d 1693 223d
000002f0: eab4 82bd c418 e5bc bd2a d23a be5b 18bd
00000300: 2296 55bb 7573 333c dc16 63bd 9d23 ab3c
00000310: 0b93 17bd 73ed b3bc d43f 983c bafe 6f3d
00000320: 9c9a 7b3d 2b20 6a3c cc73 493c 20de 453b
00000330: 1df5 ea3c 15de 34bc f168 8c3b 09de e8bb
00000340: aada 7bbc 967c 703c f7c6 de3b f46e 61bc
00000350: efc0 a73c 8737 023c 0d93 0d3b a31a 643d
00000360: 6934 413d 7b2d 05bd a5d8 16bd 5636 96bd
00000370: 89d8 d53b 1cc5 e13c 76fd aabc d967 0f3c
00000380: 7d6d 2fbb 95ee e4bc ee38 533c 7f15 183d
00000390: 627a ecbc b8fe fabc e588 ecbb 6e69 4fbd
000003a0: 882a 35bd 7a48 a7bc d235 15bd c7a3 55bd
000003b0: 10c7 763c 8d37 393c ac84 b93d 6d27 f3bc
000003c0: fcd6 69bb 6b8b 03bc 97b3 2abc a7a6 913c
000003d0: 9f6f 0e3d 5350 1d3d e7b7 6b3b 91bd 8dbd
000003e0: b343 42bb b028 c43c c9ec 4bbc 5c32 0b3d
000003f0: 1129 14bd c936 003d 3797 d0bb 0002 97ba

actor.7.bias f4 [4]
-0.027038768 0.0031498137 -0.014610686 0.031897448
00000000: 6880 ddbc 1b6d 4e3b a961 6fbc e6a6 023d

critic.0.weight f4 [32, 3, 4, 4]
0.002858906 -0.03034621 0.11917285 0.0012244117 0.1539271 0.12570082 -0.007257418 0.09366067
-0.12683444 -0.09883538 -0.03704227 0.044813953 -0.06171337 0.000104922576 -0.0007753129 0.12501663
0.015016622 -0.12757191 0.22341406 -0.114294365 0.1171685 -0.11507544 0.03780368 0.11187618
0.06708905 -0.03132635 -0.21324612 0.03524165 0.113262236 -0.049505323 -0.06674365 0.09180526
0.0106588695 -0.14145957 -0.07181204 0.11926798 0.0014921715 0.14188099 0.13777465 0.112204805
0.015690342 -0.059038218 -0.0013890538 0.056956347 -0.00851234 0.087725915 -0.11025097 0.09165426
0.1287417 0.039724514 0.10981091 -0.0036054961 0.006969513 0.06912355 0.08339422 -0.09560779
-0.12796044 0.059051704 0.12691824 0.10073184 0.03492574 -0.103145346 0.12734158 -0.015751384
0.092416465 0.0695469 -0.049567766 -0.116823316 0.1050294 0.14305599 0.09806575 -0.0067301933
-0.043335423 -0.12392517 -0.07288677 0.24217208 -0.039596163 -0.14144492 -0.18267274 -0.22978735
-0.103607915 0.07568761 0.026798332 0.018933246 0.05154988 -0.042388394 -0.051319003 -0.13994326
0.12956117 -0.03733853 0.048549984 -0.07193822 0.015221572 -0.085123 0.099173106 -0.02514086
-0.1077864 0.1042403 -0.07989524 -0.0008819168 0.046119466 0.12013782 -0.04042285 0.04381364
0.12824 0.13215883 0.042621598 -0.07843803 -0.030299889 -0.1288193 0.08867665 0.03053475
0.045318667 -0.118824035 -0.12102261 -0.05857848 0.019027267 0.112247065 -0.051567033 -0.08301689
0.097276144 -0.13317429 0.10699533 0.014032054 0.005287718 -0.065067 0.006933747 -0.0701641
0.021168474 -0.14178863 0.09930205 -0.063430354 0.13723662 -0.015402307 -0.106387004 0.061212465
-0.12300477 0.07031447 0.14232585 0.016019998 0.032156624 -0.056980368 -0.022279266 0.03960289
-0.13936691 -0.13648719 0.11942936 -0.019350726 0.034829564 0.0025607273 -0.023342686 0.03805383
0.098669514 0.12021426 -0.044319376 -0.05753471 -0.107271165 0.031328 0.033623956 0.01727749
0.07568025 0.003339744 0.117946446 0.0015273573 -0.025755707 -0.090417385 -0.027156575 -0.12335329
0.088678844 -0.072435364 0.017893447 0.110230975 -0.005812945 0.038946886 0.22572753 -0.14807147
0.046606626 0.11499756 0.035878137 -0.09383017 0.113008484 -0.12143791 -0.09692716 -0.013528068
0.04316466 0.028986037 0.13420852 -0.0679749 0.086709514 0.10312296 0.04888174 -0.13855381
0.14533229 -0.042851288 0.08793664 0.054007906 -0.15224132 -0.107183166 0.118645005 -0.10662347
-0.062492955 -0.060029533 0.060371645 0.057914533 0.05798148 0.1042181 0.047986697 0.026856678
0.039026648 -0.018824924 -0.16032068 0.0014168568 -0.14927463 0.18369935 0.030889159 -0.10304527
0.117166266 -0.14040136 -0.12683983 0.15830973 -0.109752096 0.13057536 -0.14266227 -0.1025516
0.13976794 0.07679337 -0.069388285 0.02575609 -0.080812596 -0.11143325 0.09594478 0.019155707
-0.053417202 0.04704088 0.06917083 0.13698046 -0.08018081 0.10584796 0.10237107 0.1424301
-0.11882718 -0.09340151 0.07109802 -0.103479065 -0.071726725 0.04081853 0.021154381 0.017787436
0.03998579 0.0714015 0.114119075 0.08883632 0.12312946 -0.08317439 0.11307616 0.07769561
00000000: 7c5c 3b3b 9d98 f8bc e510 f43d 707c a03a
00000010: 119f 1d3e b7b7 003e a2cf edbb 2ad1 bf3d
00000020: e3e0 01be 346a cabd a3b9 17bd d68e 373d
00000030: 29c7 7cbd e109 dc38 5e3e 4bba 5c04 003e
00000040: 4708 763c 36a2 02be a8c6 643e 2a13 eabd
00000050: 0af6 ef3d acac ebbd 08d8 1a3d 571f e53d
00000060: fc65 893d 0f50 00bd 315d 5abe 8c59 103d
00000070: 08f6 e73d 18c6 4abd e5b0 88bd 6504 bc3d
00000080: 8aa2 2e3c c7da 10be 3112 93bd c542 f43d
00000090: f894 c33a 4049 113e cc14 0d3e a2cb e53d
000000a0: 0889 803c 0fd2 71bd e910 b6ba 0f4b 693d
000000b0: 5777 0bbc a5a9 b33d 43cb e1bd 3bb5 bb3d
000000c0: ddd4 033e 2cb6 223d 8be4 e03d 304a 6cbb
000000d0: 8360 e43b a690 8d3d 97ca aa3d 04ce c3bd
000000e0: 1008 03be 33e0 713d dbf6 013e 7f4c ce3d
000000f0: 4b0e 0f3d de3d d3bd d565 023e 0c09 81bc
00000100: d844 bd3d 9b6e 8e3d 9207 4bbd 1041 efbd
00000110: a719 d73d 457d 123e b2d6 c83d f488 dcbb
00000120: 7c80 31bd 7bcc fdbd a945 95bd f5fb 773e
00000130: 962f 22bd f0d6 10be 900e 3bbe 604d 6bbe
00000140: 6330 d4bd 1b02 9b3d 2d88 db3c e519 9b3c
00000150: f825 533d 749f 2dbd e033 52bd 494d 0fbe
00000160: afab 043e 49f0 18bd 59dc 463d 5854 93bd
00000170: e663 793c f854 aebd 451b cb3d 34f4 cdbc
00000180: 1ebf dcbd f07b d53d 1ea0 a3bd 6f30 67ba
00000190: c4e7 3c3d d10a f63d 6e92 25bd ee75 333d
000001a0: 5951 033e a554 073e fc93 2e3d 1ea4 a0bd
000001b0: 7937 f8bc 35e9 03be 1a9c b53d 0324 fa3c
000001c0: 11a0 393d 045a f3bd b4da f7bd fdef 6fbd
000001d0: 12df 9b3c cae1 e53d f437 53bd c204 aabd
000001e0: b738 c73d d75e 08be 5e20 db3d b3e6 653c
000001f0: 9844 ad3b d941 85bd 7c34 e33b 32b2 8fbd
00000200: 8269 ad3c 0a31 11be e05e cb3d c6e7 81bd
00000210: c287 0c3e f559 7cbc 6ee1 d9bd ecb9 7a3d
00000220: ede9 fbbd 0801 903d debd 113e 5f3c 833c
00000230: aab6 033d 3f64 69bd 0283 b6bc a436 223d
00000240: 33b6 0ebe 4cc3 0bbe 6197 f43d 6a85 9ebc
00000250: 72a9 0e3d e0d1 273b 2939 bfbc 55de 1b3d
00000260: 3e13 ca3d e532 f63d 3c88 35bd 84a9 6bbd
00000270: fcb0 dbbd ca51 003d 46b9 093d 8689 8d3c
00000280: 3ffe 9a3d 9bdf 5a3b e88d f13d 9b31 c83a
00000290: a2fd d2bc c02c b9bd 7777 debc a6a0 fcbd
000002a0: 419d b53d fe58 94bd 4795 923c c7c0 e13d
000002b0: 847a bebb c586 1f3d 1e25 673e 0ca0 17be
000002c0: 97e6 3e3d d783 eb3d f4f4 123d 082a c0bd
000002d0: fe70 e73d 70b4 f8bd bf81 c6bd d4a4 5dbc
000002e0: 6dcd 303d 2074 ed3c f56d 093e 6d36 8bbd
000002f0: c294 b13d 2132 d33d 3838 483d 0de1 0dbe
00000300: fdd1 143e d584 2fbd 2018 b43d 6537 5d3d
00000310: 26e5 1bbe d982 dbbd 27fc f23d 685d dabd
00000320: 9df8 7fbd 87e1 75bd 4248 773d ca37 6d3d
00000330: fd7d 6d3d 4d70 d53d b38d 443d 8902 dc3c
00000340: 68da 1f3d ba36 9abc 1b2b 24be d3b5 b93a
00000350: 73db 18be af1b 3c3e 430b fd3c 6609 d3bd
00000360: def4 ef3d 60c5 0fbe 4de2 01be f21b 223e
00000370: b5c5 e0bd 8cb5 053e 0f16 12be 9306 d2bd
00000380: 541f 0f3e d845 9d3d 721b 8ebd 70fe d23c
00000390: 1381 a5bd 1e37 e4bd b27e c43d 6eec 9c3c
000003a0: ffcb 5abd f0ad 403d 70a9 8d3d 9b44 0c3e
000003b0: d635 a4bd d1c6 d83d eca7 d13d 32d9 113e
000003c0: aa5b f3bd 4a49 bfbd d79b 913d d5ec d3bd
000003d0: 76e5 92bd 5531 273d f44b ad3c f5b6 913c
000003e0: 24c8 233d f33a 923d 43b7 e93d d1ef b53d
000003f0: 4c2b fc3d 5657 aabd 7994 e73d e01e 9f3d

critic.0.bias f4 [32]
-0.019484488 -0.040246177 -0.14718843 -0.08973134 -0.038009945 0.010455837 0.09630409 -0.123745896
0.10960985 0.027329644 0.1327184 0.02266054 0.09468751 0.109050736 0.046034306 -0.12124817
-0.02421473 0.0026287984 -0.100188 -0.0726027 -0.0036417232 -0.01708553 -0.11615647 -0.06986796
-0.022087857 -0.053503927 -0.09407382 -0.12802088 -0.050923716 0.12552667 0.022269849 0.17287444
00000000: ef9d 9fbc 2dd9 24bd 90b8 16be 11c5 b7bd
00000010: 51b0 1bbd f54e 2b3c 143b c53d 7d6e fdbd
00000020: 217b e03d 6be2 df3c 55e7 073e 99a2 b93c
00000030: 86eb c13d fe55 df3d 788e 3c3d f650 f8bd
00000040: f85d c6bc eb47 2c3b 5e2f cdbd b9b0 94bd
00000050: faa9 6ebb f4f6 8bbc 71e3 edbd ef16 8fbd
00000060: 98f1 b4bc ef26 5bbd c6a9 c0bd e817 03be
00000070: 6395 50bd 108a 003e 426f b63c ff05 313e

critic.2.weight f4 [64, 32, 4, 4]
0.02624566 0.031952772 -0.040886566 -0.024466852 -0.026713736 -0.0374119 0.0048049386 -0.024364008
0.018125337 0.00014185812 -0.2633086 -0.042157438 -0.022008436 -0.0014859188 0.043336373 -0.019481475
-0.028761115 0.03755835 0.0182703 0.002131798 0.019561116 -0.10272207 -0.0009352567 0.035747733
-0.041546192 0.078368165 -0.03081676 0.026770514 0.029914642 0.0018352107 -0.030201046 0.03303417
-0.010424432 -0.0054085734 -0.020124482 0.039976154 0.01334709 0.018892176 0.0050988253 -0.008979144
0.008619599 -0.017900834 0.017063322 0.03208315 -0.037770916 -0.001963374 0.042477462 -0.042070173
-0.011084505 0.019330947 -0.012951252 0.041148208 0.010932255 -0.02274579 0.09397031 0.014297865
0.008728844 0.058089733 -0.038284846 0.021506857 0.034934193 0.018390002 0.030965773 0.0016245345
-0.014311853 -0.005592892 0.028723171 -0.022562366 0.032858804 -0.06013158 -0.099520214 0.011859965
0.013996958 0.04281992 -0.1325948 -0.003820617 -0.033722114 -0.039165027 -0.01233584 0.026677053
0.043941725 -0.01918867 0.04228615 -0.023719957 -0.028754171 -0.03009389 0.008526163 0.00050275394
0.042948775 -0.060345903 -0.009776057 0.035473827 0.017861482 0.0033148653 -0.003209161 0.023881469
0.029708253 -0.03390499 -0.0394915 0.043111272 -0.0016838772 -0.040722653 -0.03459802 -0.043707035
-0.019472318 0.0029614388 -0.009065202 -0.038272284 0.019470854 -0.03718585 0.016474523 -0.004977659
-0.032561652 0.027493343 0.02599695 0.0033076266 0.02091777 0.008939623 -0.017763011 -0.030364286
0.0041042655 -0.07486466 0.030574894 0.028053027 0.040701084 -0.0021004146 -0.024621751 0.015997916
0.008841281 -0.038946267 -0.040860206 0.015560453 0.03926828 0.024485985 0.016611785 -0.0028557545
-0.026797788 0.018948674 -0.017479872 0.016694171 -0.04050301 -0.0432278 -0.01870955 0.0011889205
-0.018437423 0.03542191 0.030529233 -0.01896841 -0.0074858335 0.015271091 -0.18431127 0.00326843
0.03233693 -0.021764506 0.015983634 0.00041621065 -0.011176159 -0.030986652 -0.032797232 -0.033216752
-0.025329692 0.005874138 -0.022223743 0.010135838 0.012652631 -0.016524673 -0.020919753 0.0053912825
0.01031847 0.010336524 -0.091273636 -0.020627968 -0.021152675 -0.01718198 0.004238967 0.028971279
-0.038082037 -0.042930856 0.03257817 -0.020612305 0.041458927 0.028821167 -0.004845068 0.025167173
0.028835788 -0.04149515 -0.044796653 0.041768376 -0.026198866 -0.0029547731 -0.036229882 -0.040571697
0.020238653 0.011805174 -0.04325597 0.014323116 0.042197756 -0.0310956 0.06992538 -0.033435073
-0.028687315 0.048848614 0.015742846 -0.006760718 0.016506033 -0.033991043 0.014912893 0.027022973
0.027227765 0.029226711 0.04392138 -0.0035523523 0.03855275 -0.15786754 -0.011614468 -0.0073998645
0.0005514283 0.0023356483 -0.09904463 7.777674e-05 -0.017823586 -0.04049809 0.022584062 0.0054934677
0.023920555 -0.024256755 0.034366496 -0.03700964 0.035747886 -0.0237692 -0.032985255 0.03593841
0.03536061 -0.004253302 -0.075623855 -0.03522012 0.009499436 -0.0045027533 0.021772819 0.010126213
-0.025971705 0.017958235 -0.018180111 0.037985314 0.013942061 0.03627186 0.06213753 0.034266725
-0.02610797 0.005413778 0.028876917 -0.039378658 0.024541367 0.018098626 -0.002320284 -0.027732795
00000000: 2301 d73c e9e0 023d ac78 27bd b56e c8bc
00000010: c4d6 dabc 383d 19bd bf72 9d3b 0797 c7bc
00000020: 967b 943c c0bf 1439 63d0 86be 47ad 2cbd
00000030: 094b b4bc 29c3 c2ba 7b81 313d 9d97 9fbc
00000040: 6e9c ebbc c9d6 193d 99ab 953c a3b5 0b3b
00000050: a23e a03c f35f d2bd 042c 75ba 376c 123d
00000060: 572c 2abd 7d7f a03d 6e73 fcbc d64d db3c
00000070: 8d0f f53c 748b f03a 2f68 f7bc d64e 073d
00000080: 3dcb 2abc 673a b1bb 19dc a4bc 09be 233d
00000090: c1ad 5a3c c4c3 9a3c 0c14 a73b 421d 13bc
000000a0: 3839 0d3c c5a4 92bc 61c8 8b3c 9f69 033d
000000b0: adb5 1abd f3ab 00bb d9fc 2d3d c651 2cbd
000000c0: c99b 35bc ef5b 9e3c 7d31 54bc 068b 283d
000000d0: 331d 333c 6155 babc 8273 c03d 9841 6a3c
000000e0: 6d03 0f3c 80ef 6d3d 92d0 1cbd 262f b03c
000000f0: 2817 0f3d a1a6 963c efab fd3c 55ee d43a
00000100: 437c 6abc 9444 b7bb db4c eb3c b6d4 b8bc
00000110: f496 063d 884c 76bd 41d1 cbbd 4c50 423c
00000120: 7f53 653c f163 2f3d eec6 07be 5163 7abb
00000130: 3320 0abd 826b 20bd 431c 4abc d689 da3c
00000140: 3dfc 333d 8f31 9dbc 3e34 2d3d 5b50 c2bc
00000150: de8d ebbc 7687 f6bc 52b1 0b3c 3fcb 033a
00000160: 0eeb 2f3d 442d 77bd c12b 20bc 014d 113d
00000170: 3e52 923c 363e 593b ca50 52bb 12a3 c33c
00000180: b95e f33c f5df 0abd d7c1 21bd 7295 303d
00000190: 8bb5 dcba cccc 26bd a7b6 0dbd 2606 33bd
000001a0: 6984 9fbc b314 423b 3786 14bc 66c3 1cbd
000001b0: 5781 9f3c 3150 18bd 94f5 863c a11b a3bb
000001c0: 5e5f 05bd b839 e13c 8ef7 d43c c4c4 583b
000001d0: be5b ab3c 7f77 123c bc83 91bc 86be f8bc
000001e0: 137d 863b a552 99bd 3378 fa3c 76cf e53c
000001f0: 2eb6 263d 1ca7 09bb 8eb3 c9bc 100e 833c
00000200: 05db 103c 1f86 1fbd 085d 27bd 45f1 7e3c
00000210: c7d7 203d d596 c83c 7015 883c 9c27 3bbb
00000220: 0987 dbbc 403a 9b3c f331 8fbc 37c2 883c
00000230: 7ce6 25bd a20f 31bd c544 99bc 8dd5 9b3a
00000240: 140a 97bc 9116 113d 7118 fa3c a463 9bbc
00000250: b94b f5bb 9933 7a3c 18bc 3cbe 2833 563b
00000260: bb73 043d 7a4b b2bc 1cf0 823c d936 da39
00000270: 351c 37bc b8d7 fdbc 6456 06bd 4a0e 08bd
00000280: 3780 cfbc d77b c03b 910e b6bc c910 263c
00000290: fb4c 4f3c c05e 87bc e75f abbc 5ba9 b03b
000002a0: cd0e 293c 865a 293c aced babd fcfb a8bc
000002b0: 6048 adbc 39c1 8cbc 08e7 8a3b 2d55 ed3c
000002c0: e9fb 1bbd 44d8 2fbd b070 053d 23db a8bc
000002d0: d6d0 293d 5e1a ec3c 60c3 9ebb 632b ce3c
000002e0: 0839 ec3c d2f6 29bd b27c 37bd 5115 2b3d
000002f0: 019f d6bc dea4 41bb c965 14bd 822e 26bd
00000300: 88cb a53c 7d6a 413c 2c2d 31bd 81ab 6a3c
00000310: 8ed7 2c3d 33bc febc 0a35 8f3d 37f3 08bd
00000320: a901 ebbc 7c15 483d 24f7 803c 0389 ddbb
00000330: a937 873c 313a 0bbd 3555 743c 485f dd3c
00000340: c30c df3c db6c ef3c e8e6 333d 95ce 68bb
00000350: 7de9 1d3d 07a8 21be 9c4a 3ebc 907a f2bb
00000360: ba8d 103a ad11 193b e9d7 cabd 121c a338
00000370: c502 92bc 53e1 25bd 3602 b93c 8c02 b43b
00000380: 0af5 c33c 1ab6 c6bc e2c3 0c3d 6c97 17bd
00000390: 606c 123d a0b7 c2bc 8c1b 07bd 2734 133d
000003a0: 49d6 103d 485f 8bbb aee0 9abd f942 10bd
000003b0: 86a3 1b3c d58b 93bb e95c b23c 6ae8 253c
000003c0: 9dc2 d4bc 261d 933c 75ee 94bc 7d96 1b3d
000003d0: 3e6d 643c cd91 143d ec83 7e3d 445b 0c3d
000003e0: 62e0 d5bc 1066 b13b 498f ec3c 844b 21bd
000003f0: fa0a c93c 9243 943c e80f 18bb e32f e3bc

critic.2.bias f4 [64]
0.0358058 -0.030224146 0.035638448 -0.0043473444 -0.032775603 -0.052007586 -0.026918972 0.0013915105
0.010652527 -0.024889247 -0.026247889 0.022652645 0.0035686684 -0.014451889 -0.028698519 -0.035562214
-0.03044387 -0.027239405 -0.0012073842 -0.026192088 -0.052307863 0.00923136 0.030548329 -0.03456142
-0.060006194 -0.011813159 -0.029532364 0.037582606 -0.023429975 -0.0046431622 -0.041425362 -0.044253033
-0.02741417 0.01675956 -0.02596976 -0.021695487 -0.042497173 -0.024122002 -0.030683966 0.017229538
-0.0032919382 -0.0083094295 -0.046158202 -0.0029606975 -0.051497877 -0.009291825 0.04346308 -0.029898493
-0.059566706 -0.043126784 0.006076209 -0.0050883787 -0.012355165 0.013010032 -0.052460875 0.042321585
-0.037751272 0.014743336 -0.0057495134 -0.042031255 -0.03755242 -0.03506654 -0.024944346 6.2902516e-05
00000000: 1aa9 123d a198 f7bc 9ff9 113d 2b74 8ebb
00000010: b63f 06bd e805 55bd 2d85 dcbc 5863 b63a
00000020: f087 2e3c 89e4 cbbc d005 d7bc 0a92 b93c
00000030: 52e0 693b 9ec7 6cbc 2819 ebbc afa9 11bd
00000040: 6c65 f9bc 2c25 dfbc 1741 9eba ca90 d6bc
00000050: c540 56bd 213f 173c 7d40 fa3c 4790 0dbd
00000060: 0ec9 75bd fb8b 41bc dbed f1bc 38f0 193d
00000070: 38f0 bfbc ab25 98bb a4ad 29bd ab42 35bd
00000080: ae93 e0bc 584b 893c 89be d4bc bcba b1bc
00000090: 8411 2ebd 819b c5bc f15c fbbc f624 8d3c
000000a0: 8fbd 57bb 4624 08bc 6210 3dbd 4308 42bb
000000b0: 70ef 52bd bd3c 18bc 5806 323d afed f4bc
000000c0: 38fc 73bd b6a5 30bd ef1a c73b 6abc a6bb
000000d0: 516d 4abc 0728 553c 37e1 56bd 6659 2d3d
000000e0: 14a1 1abd 088e 713c 6a66 bcbb f728 2cbd
000000f0: 91d0 19bd efa1 0fbd 1658 ccbc 88ea 8338
