storage/multigrid-rat-100-v0/PPO_multigrid-rat-100-v0_seed_1_run_0_agent_0.pth (torch, 587061 bytes, 15 tensors)

actor.0.weight f4 [32, 3, 4, 4]
00000000: 457c d73d d374 88bd 0d5f 08bd e560 613d
00000010: fca1 0bbe 3ebc 9f3d c4c0 03bd e0b1 8f3d
00000020: 1b2e 493d 0292 7cbc d1e8 0d3d 0c5b 4fbb
00000030: e3ec 573d cf7a 31bd a31d 7cb9 1f7a 40b9
00000040: 8beb 5d3d aadd 9cba affb 023e e23e 4d3d
00000050: b233 0ebe 0c3c 12be 1d89 3cbd eab9 d9bd
00000060: 9fd8 bcbc b78c 683c 4a00 af3d 82fb ae3d
00000070: d07b 10be 011a cf3d 7d19 d03c 6adc 203e
00000080: aa1d c33d ecaa 06be f487 0cbe 3894 8ebd
00000090: 50c9 013e 12f4 c4bc 3203 7d3d c85e 89bd
000000a0: 9106 113e 7d23 7abd 26ae dd3d 1707 e03a
000000b0: 9fba 9bbd cbf1 973d 86e9 9cbd 6de0 2d3d
000000c0: 46d5 d0bc 8c89 07bd 8638 1bbe 74ed a9bd
000000d0: 9e37 833d 174a 1ebd 8488 133e 0a75 f23d
000000e0: 7540 443c 5d47 dabd 674a c13d 020f 603d
000000f0: d5ae d6bd c3c8 e63d fdcc b03d ba1b 033e
00000100: 243d 82bd b969 d2bc 9134 03bd 6c76 b0bb
00000110: fab0 fbbd 18cb ebbd b81e cc3d c494 77bc
00000120: 4f66 b83d dc0c 953c 4a3a 8b3d a0cd 133d
00000130: c8ac 4c3d bef7 8b3d 023a 17be d643 943d
00000140: 77d8 cfbd 0e09 dfbd c3d0 0f3c e17d c9bc
00000150: 6d9d ad3d c631 abbd 9c64 03be 8121 d73d
00000160: 9554 afbc a443 a63d 5610 3e3d 67aa ddbd
00000170: 798b ed3c 7e01 0e3d 7cec c5bd 6e41 8cbd
00000180: c4e5 133d 8f5f eb3b e941 9fbd 66ea c7bc
00000190: 9ef5 083e abc5 f8bc d0b3 a03d 3918 573d
000001a0: c6d8 e4bd 153b 14be 0087 233e 94ce 2abc
000001b0: ecc8 c23d 69d9 1d3d 6377 283d d49c 163e
000001c0: 5689 173e b2b3 dcbd f415 60bb a5ad 1a3e
000001d0: 2fc8 f93d 9890 c83d 9db7 d4bd 8f15 34be
000001e0: a2da a2bd d266 293d 3060 163e db70 1abe
000001f0: 352a 4b3d 7042 90bd 0810 24be 18e8 fbbc
00000200: 6b51 aa3d 2237 093e c594 b7bd 694c 003d
00000210: 7910 ff3d f2e1 c33d 113a b83d bb10 d23d
00000220: 55f9 ba3d e0b4 183d b723 cabd 443c f8bd
00000230: 9873 87bd ebaf 89bc d330 b5bd 8d4b 583d
00000240: afe5 b83c 1baa 03bc c2b1 bb3d 778d ee3c
00000250: 2534 873d e5ca fb3d 319f 92bc 8304 0b3e
00000260: 06df 1ebd 695d 163c 7f6c f7bd a8f5 acbd
00000270: 3b43 babd 900f 28bd 2328 f23d d013 57bd
00000280: 18e6 dcbd 3f66 b33d d077 d53d d91a dc3d
00000290: 6cf7 98bd f8c3 253d cc0d 40bd c9e3 ffbc
000002a0: 5d92 ebbd 0e1c 88bd 106e b7bc 2a0d 9e3d
000002b0: b103 d83c b8ba 1b3d 3381 273e 8cc9 2c3e
000002c0: 8b9d c93d e29b 963b f07e ccbd 5104 e73d
000002d0: d3d6 13bd 6d2f 3fbc 76a9 febd 7a8f e9bc
000002e0: 1aa9 bebd dad0 073e 288e ffbd ee6a e6bd
000002f0: fa99 a0bb 59d6 9fbd 688a 533d 1292 63bd
00000300: 71be 86bd 9eb7 6e3b 817b e83d a2fd f5bd
00000310: 353a a93d 4d97 f23d b646 133e 6743 babd
00000320: ec41 3a3d 314e bdbd 1fd6 fb3d eb8c 3bbd
00000330: 4de9 c13d e987 dc3c e297 64bc 8a8d abbc
00000340: c180 853c 435b 903d 7f96 d93c ae81 773c
00000350: 4aa4 debd dd58 f83d fc2f 0c3e 2567 113e
00000360: 18df e23d ce17 01be 9d6c a0bd 08e5 343e
00000370: bb1c e4bd e4da 0d3e 3150 fcbd c805 c1bd
00000380: 9483 903d 4463 d4bd 2472 07bd 8c0c d73d
00000390: e424 ea3d c6c8 0b3e acee efbc c9c2 e5bd
000003a0: f286 113e 8ee2 fbbc 423e 73bd e71e 103d
000003b0: 00b9 cebd 524b c23d a843 b93d 428e eabd
000003c0: b89f 07be 5e7b 10bc 29fc 813d 4ff6 46bc
000003d0: 243d 2fbd ed64 273d 6ab3 0ebe 2493 8fbd
000003e0: 6ca0 b7bd b87e 103e b9f6 113e 5542 27bd
000003f0: e610 0c3d 6a3c bf3d 804b 1c3d c1c9 d6bd
0.105217494 -0.066629075 -0.033293772 0.055024046 -0.13636011 0.07799576 -0.032166258 0.07016349
0.049116235 -0.01541567 0.03464586 -0.0031639962 0.052716147 -0.04333001 -0.00024043633 -0.0001835604
0.05417971 -0.0011967917 0.12791322 0.050108798 -0.13886908 -0.14280719 -0.0460292 -0.106311634
-0.023052512 0.014193705 0.08544977 0.08544065 -0.1410973 0.10112382 0.025402779 0.15709081
0.09527142 -0.13151139 -0.13723737 -0.06961864 0.12674451 -0.024042163 0.061770625 -0.06707531
0.14162661 -0.061069 0.10824232 0.0017091957 -0.076039545 0.07419165 -0.076617286 0.042450357
-0.025492322 -0.03309016 -0.1515828 -0.08297244 0.064070925 -0.038644876 0.14407545 0.1183873
0.011978258 -0.10658143 0.09438019 0.054701813 -0.10482565 0.11268761 0.086328484 0.12803546
-0.06359318 -0.025685178 -0.032032553 -0.0053852107 -0.12289615 -0.115133464 0.09966797 -0.015111152
0.09003889 0.018194608 0.06798227 0.03608477 0.049969465 0.068343624 -0.14768222 0.07239501
-0.10148709 -0.10890399 0.0087778 -0.024596157 0.08477292 -0.08359103 -0.12831348 0.10504437
-0.021402637 0.0811837 0.046402298 -0.10823517 0.02899717 0.03466939 -0.096642464 -0.06848417
0.036107793 0.0071830223 -0.07776243 -0.024403762 0.13374946 -0.030367693 0.078467965 0.052513335
-0.11174159 -0.14475663 0.15969467 -0.010425229 0.09510979 0.038537417 0.04112948 0.14708263
0.14798483 -0.10776462 -0.0034192773 0.15105303 0.12196385 0.09793204 -0.10386584 -0.17586349
-0.07951857 0.041357823 0.1468513 -0.15082113 0.0496008 -0.07043922 -0.1602174 -0.03075032
0.083163105 0.13399938 -0.089639224 0.03132287 0.12454314 0.0956458 0.0899545 0.10257097
0.091295876 0.03728187 -0.09870093 -0.1212087 -0.06613845 -0.016807517 -0.08847203 0.052806426
0.02257046 -0.008036162 0.09164764 0.02912019 0.06601743 0.122945584 -0.017898174 0.1357594
-0.03878691 0.009177544 -0.12081241 -0.08445293 -0.090948544 -0.041030467 0.11824062 -0.05250913
-0.107860744 0.08759736 0.10423243 0.10747308 -0.07469067 0.040470093 -0.046888158 -0.031236546
-0.11502526 -0.06645976 -0.02239135 0.077173546 0.026368948 0.038019866 0.1635788 0.16873759
0.09844502 0.0045962194 -0.09985149 0.1128012 -0.036093544 -0.011669022 -0.12434666 -0.028510798
-0.09309597 0.13263264 -0.12478286 -0.11250864 -0.004901168 -0.078045554 0.051645666 -0.055559225
-0.065792926 0.0036425362 0.113516815 -0.12011267 0.08263055 0.118452646 0.14382443 -0.09094887
0.045473024 -0.092434295 0.122967 -0.045788687 0.09468327 0.026920276 -0.013952227 -0.020941515
0.016296746 0.07048657 0.02656102 0.015106602 -0.108711794 0.12126324 0.1369018 0.14199503
0.11077708 -0.12606737 -0.07833216 0.17665493 -0.111382924 0.13853031 -0.12319983 -0.09424931
0.070563465 -0.10370496 -0.033067837 0.1050044 0.114328176 0.13650808 -0.029288612 -0.11218793
0.14211634 -0.030747678 -0.059385546 0.03518572 -0.1009388 0.094870225 0.090461075 -0.11452915
-0.13244522 -0.0088184755 0.06346924 -0.0121436855 -0.042782918 0.040867735 -0.13935629 -0.07010487
-0.08966145 0.1411084 0.14254273 -0.040834744 0.034195803 0.09337695 0.03815794 -0.104877

actor.0.bias f4 [32]
00000000: 1417 efbc e466 b23c a28e a43d f723 ab3d
00000010: a581 7d3d 7b1f 2c3d 9a23 d0bd 15d2 94bd
00000020: f41e d5bd 51c8 de3d d72d 02be ec44 b5bd
00000030: 33ba d73d 6829 b53d 372d 02be d749 b23d
00000040: 09c9 d9bc 90a9 2a3d f986 a4bd e036 9abc
00000050: 2713 3f3d 75d8 eb3d e78e b93d 9f9c b8bd
00000060: e3bf c1bd 246e 243b 5e69 463d 06e1 b63d
00000070: fc22 1ebe fbdd 1b3c ce02 1c3c 9e4e 7dbd
-0.02918581 0.021777578 0.080350175 0.08356469 0.061891217 0.04202221 -0.101630405 -0.072666325
-0.104062945 0.10878051 -0.12712799 -0.088510364 0.105335616 0.08845788 -0.1271256 0.0870549
-0.026585119 0.041665614 -0.080335565 -0.018824995 0.046649124 0.11515895 0.090604596 -0.09014248
-0.094604276 0.0025090063 0.04844033 0.089296386 -0.15443033 0.0095133735 0.009522153 -0.061842553

actor.2.weight f4 [64, 32, 4, 4]
00000000: d4c6 0e3d b034 40bc 5795 2cbd 462a d8bc
00000010: 91ba b93a 3e92 bebc 2254 f6bc 9a18 303d
00000020: 7821 ed3a 7fa4 6fbc 8243 933c ada2 053d
00000030: d594 f03c 46b3 5b3b 9468 043b a862 0cbd
00000040: c269 933b b711 303d b21c 193b fb89 21bd
00000050: dcb5 c63c 06f5 373d e6fc 3a3d 959a 083b
00000060: 0b07 083c 5a20 e9bb 8050 11bc 3a4d d3bb
00000070: 3fad 133d bebe 933b ad9b 2a3d fe6a f0bc
00000080: c6a4 d3bb 01c3 073a 4779 d7bc 21c3 0b3d
00000090: 14da fc3c e33f d03b 19bc 3b3d 8ecb 283d
000000a0: 62df d4bc 3000 06bc bdb3 843d 8a09 ebbc
000000b0: 3bdf e2bb 1c74 f8bc b39d 023d 82c2 ea3b
000000c0: 50b7 963c ebe4 013d f1c4 e5bb d6f1 34bd
000000d0: 2ad4 0d3b 1e85 8dbb ba24 193c 1dff a83c
000000e0: 1808 b4bc 16a6 bbbc 1ff6 8d3c dc20 4e3c
000000f0: abde 253c 6731 a13c 5658 a83c e4cb 02bd
00000100: 6746 673b 3571 8a3b c1db 2ebd 1fa9 193c
00000110: e094 1aba 141e 993c ea43 2fbd 5d47 2a3d
00000120: 1b2c b1bc 149f 063d 7ef1 113d e6ac b3bb
00000130: 9039 b9bc 456d f0bb e4c9 e1bc 4600 b33b
00000140: 912e 983c f2a4 153c 0c7d d0bc 7fd1 c53c
00000150: bd1c 263d 3fd6 97bd c893 ed3c 4ee8 3ebb
00000160: 97ed 913c fc74 5fbd 016c aebc d772 a4ba
00000170: 6686 18bd b86a 823c 5475 293d de00 0ebc
00000180: 3385 df39 763a dc3b b3f3 aebc 652f 14bb
00000190: e789 3a3c ce64 ae3c 9b58 63bd 8a53 65ba
000001a0: d4ae 13bd 6381 bdba 5f44 26bd 1ff7 96bc
000001b0: 100f de3c 5765 f83c bc72 8cbc 4ae4 c9bb
000001c0: c9eb 5dbc c004 9c3a 46a9 6e3c 125c 273d
000001d0: 7409 26bd 652c 463d 9920 b2bc 0ad3 13bd
000001e0: 8f67 0b3d 17ab fcbc 4f03 cbbc 16a1 463c
000001f0: ddaa 16bc d8b0 25bd 8bd7 bcbc 88f1 98bc
00000200: 48e3 61bb 3700 efbc 9956 2ebd 545c c93c
00000210: 8a71 1bbd dec8 743c e635 743d 3241 85bc
00000220: 386b efbc c16a 4a3c 1663 733d 1eb4 9fbb
00000230: 7ee5 2abb 9829 a93c 7865 b53b 6cb5 0a3c
00000240: 2e95 bf3c 658e a43c 29a3 01bd e9ec 8ebc
00000250: 4952 f73c 386a 8f3b d48f 8cbc dede 2d3d
00000260: 281a e03c b98e b13b 1a37 043d 353b 1fbd
00000270: 44bb e03b 4b0f 3d3c c5ce fbbb aa02 aabc
00000280: 54a7 053c 3fa1 15bd f93c 9abc a97a 093d
00000290: a503 85bc b975 50bc c563 a23c da2f 37bc
000002a0: c5b0 d43b 8feb 34bd 6226 ce3c f709 21bd
000002b0: 96e7 c03b 4b98 33bd 9e5d 1bbd 90a0 113d
000002c0: 185a c7bc f9ea c7ba 9305 013b 3990 263d
000002d0: 8029 673c f5b8 b03c 2a78 f4bd 1b44 78bc
000002e0: 99ad 033d fdb8 843c eae6 22bd 4482 08bd
000002f0: b378 10bd 0332 123c 14d8 07bd b3d5 fd3c
00000300: 39d6 163d eaf0 95bc f158 e9bc 9f3b 2f3d
00000310: 6528 c1bc ff19 1dbd fd6f 10bd 0490 fb3b
00000320: ed9c 0c3c bd11 e53c 92f0 3b3d 6066 9a3c
00000330: 46bb ce3b 4f7e 233d 6168 95bc 9ef3 fdbb
00000340: 6a49 193d 05b6 73bc bb19 c23c 7648 1b3c
00000350: 2495 7f3c a98d 25bc 1d2d 1abd 17cf 013d
00000360: 600a 153d a4e5 05bd 1db2 25bd 4fa8 f53a
00000370: f261 b33c e8f9 ccbb 60ba 9ebc d1dd 0c3d
00000380: 87bf b5bc ac7a 243d 9305 453a 7f0f be3c
00000390: 263e 2a3c f2e3 fe3b 7c34 053d 5827 11bb
000003a0: 3671 ff3c 88e6 433c 79ab 54bd c34b ed3c
000003b0: 499b 00bd 087f bc3c c020 1bbc c4ad 603c
000003c0: fd47 adbb ba20 0f3c 49b2 5abc ea0a 963c
000003d0: 9bfe a83c b34e 2ebd f604 fc3c 50fa 11bd
000003e0: e197 a1bc 2528 bf3c 7362 313d e670 6b3c
000003f0: 4c06 cabc 25d8 fe3b 6944 d9bc e652 aa3c
0.034857586 -0.011731312 -0.04213461 -0.026387345 0.0014169981 -0.023263093 -0.030069415 0.042992212
0.001809164 -0.014626621 0.017976526 0.032625843 0.029367844 0.0033523603 0.0020203935 -0.034273773
0.0044986913 0.042985644 0.002336305 -0.03943823 0.02425664 0.044911407 0.04565134 0.0020844091
0.00830246 -0.0071144523 -0.00886929 -0.006448415 0.036053892 0.004508822 0.04165237 -0.029347893
-0.0064588515 0.0005178899 -0.026302947 0.034121636 0.030865707 0.006355272 0.04583368 0.04120975
-0.025985423 -0.008178756 0.06479595 -0.028691072 -0.006923584 -0.030328803 0.031888675 0.0071643004
0.018397957 0.031712454 -0.0070120026 -0.044175945 0.0021641352 -0.0043188473 0.009347135 0.02062946
-0.021976516 -0.022906344 0.017329274 0.0125810765 0.010123889 0.019676877 0.020549934 -0.031932727
0.0035289766 0.004224921 -0.042690042 0.0093787005 -0.0005896818 0.0186911 -0.042789377 0.041571964
-0.021627476 0.032866552 0.035630696 -0.0054832576 -0.022610456 -0.0073372447 -0.02756209 0.005462679
0.018576892 0.009133564 -0.025450252 0.024147747 0.04055475 -0.07413911 0.029001132 -0.0029130164
0.017813487 -0.054554924 -0.021291735 -0.0012546432 -0.037237547 0.015920028 0.04137166 -0.008667199
0.00042633116 0.0067208363 -0.02135644 -0.0022611257 0.011385418 0.021288302 -0.055504423 -0.0008748105
-0.0360554 -0.0014458116 -0.040592548 -0.018428383 0.027106792 0.03032176 -0.017144553 -0.0061612474
-0.013544985 0.0011903271 0.014566725 0.04085929 -0.04053636 0.04838218 -0.02174406 -0.036089934
0.034034308 -0.0308433 -0.024781851 0.012123367 -0.00919601 -0.040451854 -0.023051998 -0.018669859
-0.0034467746 -0.029174907 -0.042563055 0.024580158 -0.037950076 0.014940469 0.059621714 -0.01626644
-0.02922593 0.012354554 0.059420668 -0.0048737666 -0.002607673 0.020649716 0.0055357777 0.008466106
0.023386564 0.02008743 -0.031649742 -0.017446952 0.030190604 0.004376676 -0.017158426 0.04244887
0.027356222 0.005418625 0.03227911 -0.038874824 0.0068582613 0.011539291 -0.007684561 -0.020753223
0.00815757 -0.03653073 -0.018827902 0.033564243 -0.01623709 -0.01272338 0.019822964 -0.011180842
0.006490799 -0.04416996 0.025164787 -0.039316144 0.005886982 -0.04384641 -0.037931077 0.035553515
-0.024334952 -0.0015252522 0.001968716 0.040664885 0.014109015 0.02157257 -0.11936982 -0.015152956
0.032147978 0.01620149 -0.039770998 -0.033327356 -0.035271358 0.008923057 -0.033165053 0.030985689
0.036825392 -0.018303353 -0.028484793 0.04278147 -0.023578832 -0.03835487 -0.03526305 0.00767708
0.008582336 0.02796256 0.045883723 0.018847644 0.006308946 0.03991538 -0.018238248 -0.0077499887
0.03742353 -0.01487494 0.02369391 0.009477725 0.015599523 -0.010104575 -0.03764068 0.031691637
0.036386847 -0.032689705 -0.040453065 0.0018742176 0.02189729 -0.006255377 -0.01937598 0.034391228
-0.022186054 0.04015605 0.0007515784 0.023200748 0.010390794 0.007778638 0.032520756 -0.0022148695
0.031181913 0.011956818 -0.05192134 0.02896679 -0.03139809 0.023009792 -0.009468257 0.013713304
-0.0052881227 0.00873583 -0.013348171 0.018315751 0.020629218 -0.042555522 0.030764084 -0.035639107
-0.019725742 0.023334572 0.04330678 0.014370179 -0.024661206 0.0077772313 -0.026521878 0.020791482

actor.2.bias f4 [64]
00000000: b3ac 37bd 3b19 c5bc ba01 1dbd d8da 0a3d
00000010: 2d80 b0bc b4db a4bc 084a 413d 4bd9 0fbd
00000020: 4d16 2d3d f257 1ebc 710e 0f3b b739 c83c
00000030: b5a2 c93c efc4 35bc 2439 4b3d 2004 8d3c
00000040: 3273 1f3d 8b41 213d be31 b5bc dfae 203c
00000050: 5d24 2fbd 7742 edbc 96e0 3a3c b70a e8bb
00000060: 2e33 0cbd ca75 fe3b 53da 8dbc 59df 0dbd
00000070: ed35 1f3c a5b1 2ebb 0c6c c43b 0827 3abb
00000080: b2f8 ee3b 23f4 f33c c10d 89bc 9bd7 eb3a
00000090: d8e3 2c3d d979 9d3c 415c 173c b75a 0dbd
000000a0: 7430 fb3c 96d2 23bd 4250 233d 5753 a63c
000000b0: 7355 f2bc 2915 e239 0316 3d3d 4b62 c6bc
000000c0: e2a2 083c c475 063d c752 2f3b bd4c e83c
000000d0: 039e e83c d799 73bb 4c78 353d 64d1 8ebb
000000e0: 5169 243d 70e4 bf3b 4e2c 9a3c 0e5d debc
000000f0: 4ce4 a53c 32b5 c23b 31cd 09bd 81aa 99bc
-0.044842433 -0.024059882 -0.038331725 0.033900112 -0.021545494 -0.020124294 0.047189742 -0.035119336
0.042257596 -0.0096645225 0.0021828676 0.024441583 0.024613718 -0.011094316 0.04961504 0.017213881
0.03892822 0.039369147 -0.022118445 0.0098073175 -0.042759288 -0.028962357 0.0114060845 -0.0070813554
-0.034228496 0.0077655064 -0.01731602 -0.03463683 0.009717447 -0.0026656177 0.0059943255 -0.0028404612
0.0072928304 0.0297795 -0.016730191 0.0017993333 0.042209476 0.01922314 0.009238304 -0.03451034
0.030662753 -0.039995752 0.03987146 0.020303411 -0.029581761 0.00043121845 0.04616357 -0.024216792
0.008339616 0.032827154 0.002675222 0.028356904 0.028395658 -0.0037170553 0.044304177 -0.0043584574
0.0401395 0.0058560893 0.018819954 -0.027143981 0.020250462 0.0059420103 -0.03364295 -0.01875806

actor.4.weight f4 [64, 64, 3, 3]
00000000: 6ab7 bc3c 30bb c0bc ed25 fc3b 9712 b4bb
00000010: ff5b ca3a 7308 97bc 0a0d 0d3b 4d63 34bc
00000020: 9c45 16bd 44c1 05bc e712 793d 1451 14bd
00000030: 5f26 40bd 1980 06bc 9ae0 cebc ee9f da3c
00000040: 2a33 293d b2b9 693d fb05 3e3c 80d0 883c
00000050: eb9f 2abd dfe9 20bd 04fa 183d 762f f93c
00000060: 18be e73c 44b2 0ebd 4661 f0bc af1c 193d
00000070: 4337 d4bc 8026 2ebb db6c 803c 678c 223d
00000080: 8b0b cdbb 265b f7bc 80a5 ebbc 702c 9ebc
00000090: 36f4 46bb 0cd3 c63b a732 d2ba 155b b4bc
000000a0: 0fe6 9d3c df7b 583d 5a5a 9b3d 0754 83bd
000000b0: 2f51 b53d b8c1 903c c385 853d 764f 52bc
000000c0: afb4 edbc 449a dabb 271a 203c d61b 3c3d
000000d0: 4419 22bd 1a1e e03d 3204 1b3d 6f95 98bc
000000e0: a787 e63c 9e96 5ebb 9eb7 843d 1d67 863b
000000f0: 6cc9 41bc 5063 363d 7485 4ebb 7547 973b
00000100: 8bce 23bd 52d5 bfbc e23a 8a3c 44b4 8ebc
00000110: 769f 993c e1b1 bcba cba9 e63c 5680 17bd
00000120: 8bed 9dbc f487 31bc 5950 de3c c713 6cbd
00000130: bc24 063d 5d95 febc f910 333c a6d0 453c
00000140: b90e 8c3c abec 18ba 7e84 b7bb a2c9 43bb
00000150: e67b e43c 4738 023d a25b 923b 8cb0 1dbb
00000160: 9b64 293d 8212 0c3d 773b 18bc d643 883d
00000170: ef5e 3dbd 895d 3c3b 95ac 5ebc b9e6 eabd
00000180: 8283 29bc 5bd9 803d 1bde 6fbc 903f c93c
00000190: 78ab ff3c d0c0 02bd 80a2 343c f6b4 233c
000001a0: 2074 d8bc 36a5 9fbb 6b42 a73b 2ecc ac3c
000001b0: b3db cbbc 567b d83b 0080 7738 fe61 b33c
000001c0: 9a36 16bd 8e54 e83c 601a 723c 489b 1d3d
000001d0: 06b2 7b3c 954f 3e3c 96a7 c0bc c26b 30ba
000001e0: 052f 80bd b42b 5a3c 7c7e f13b f6ff 48bd
000001f0: 2768 1f3d e970 30bd 023e c3bc a4f1 04bd
00000200: 7cd1 663b 3ecb 9fbc fcce 1a3c bc2b 10bb
00000210: cf81 af3c 2e95 08bd 72c0 ae3c a5e0 bdbc
00000220: 6cd5 a73c eb41 0d3d fc7f 213c 8587 723c
00000230: 11ed 343d 05ec af3c 3e6d bfbb 3e78 c93c
00000240: baec 1f3c 3c5b d93b 6ab7 edbb 823c a33c
00000250: e7b9 903b 0606 ff3c e43d f73b c40c b2bb
00000260: 0254 a03c 5d4d 55bc 9bdc 383c 6364 953d
00000270: 3d29 b03c 4b31 643d 9782 783d 8097 54bb
00000280: 2ee2 113d c70a a93a 0774 12bd 2e10 ed3c
00000290: 63e4 efbc 22a7 e9bc 5ce1 033c f149 283c
000002a0: 8791 463c 198b 6dbc 985f 643d 0740 ecbc
000002b0: be55 23bd 9b19 6f3c 917b 063d 4ed9 91bc
000002c0: db6e 8cbc f9f3 673c dc15 07bd f202 38bd
000002d0: 33fa a03c f075 22bc 64d9 193d 8073 c73a
000002e0: 4ea4 9abc 96cf 58bb e06d 8b3b 5623 8cbb
000002f0: a684 1bbd 00bf 84bc 3616 433d 1389 17bc
00000300: f740 5d3c 8612 62bc e056 7a3c 8e3b 653d
00000310: fff7 1b3d 27d0 6e3d 262e 09bd 38f0 dabc
00000320: e798 38bc 13cb 0dbd f75f ac3c 3533 85b9
00000330: fd86 bcbc ff9a c7bc 348c 163d ce5c 8e3c
00000340: 2b5f 573b 4884 08bd bfbc 053d 53a3 e03c
00000350: 7b06 3d3c 7633 17bc eb96 74bc 00c9 c83b
00000360: a01f 23bc 7a34 52bc acbd 363c 07ee 06bc
00000370: c152 da3c f136 23bd ace0 dfbc cbc7 273c
00000380: 95da 21bd 8267 883b 7602 7cbc 756a 15bd
00000390: 9599 16bb 8aea 0a3c 04ba 9d3c 8e4c 203d
000003a0: d076 c33b 82f9 14bc 5e10 153d 3cae 2ebd
000003b0: 824a 97bb da9b 49bc 5526 7dbc 8bd6 003c
000003c0: 9684 c6bc 1b34 d6bc f3a8 913c c686 a8bc
000003d0: e6e1 bfbc 2129 29bd 4e28 243d fb78 7cbd
000003e0: 2246 80bc ec44 5dbc 974f 6c3c 7443 523c
000003f0: c428 053d 0307 323c 7d06 f5bc 47fb 9e3c
0.023036677 -0.023526758 0.007694951 -0.00549538 0.0015438794 -0.018436646 0.0021522664 -0.011010003
-0.03668748 -0.008163754 0.060809042 -0.036210135 -0.046911594 -0.008209252 -0.025253583 0.026687589
0.04130856 0.05706186 0.011598106 0.016700983 -0.041656416 -0.039285537 0.03734781 0.030418139
0.028288886 -0.034837976 -0.029343259 0.03738087 -0.025905257 -0.002657324 0.015676906 0.03968468
-0.0062574795 -0.03019483 -0.02876544 -0.019308299 -0.0030357963 0.006067639 -0.0016036824 -0.022016088
0.01927474 0.052852508 0.075855926 -0.06412511 0.08853375 0.017670497 0.06519654 -0.012836328
-0.02901682 -0.006671222 0.00977186 0.045924984 -0.039574876 0.109432414 0.037845798 -0.018625943
0.028140856 -0.0033964287 0.06480335 0.0041016475 -0.011827808 0.044528306 -0.003151265 0.0046166726
-0.039991897 -0.023417149 0.01687378 -0.017419942 0.018752795 -0.0014396274 0.028157135 -0.036987625
-0.019278308 -0.010835636 0.027137922 -0.05763605 0.032749876 -0.031077081 0.01092934 0.012073671
0.017096864 -0.0005833606 -0.005600511 -0.0029874821 0.02789111 0.03179195 0.00446649 -0.002406153
0.04135571 0.034197338 -0.009291521 0.06653564 -0.046233114 0.0028742275 -0.013590951 -0.11469788
-0.010346295 0.06291457 -0.014640356 0.024566442 0.031209692 -0.03192216 0.011025071 0.009991875
-0.02642256 -0.0048719896 0.005104353 0.021093454 -0.024885034 0.0066064997 5.90086e-05 0.021897312
-0.036673166 0.028360631 0.014776796 0.038478166 0.015362268 0.0116156535 -0.023517411 -0.00067299244
-0.06258968 0.013316084 0.0073698144 -0.04907223 0.038917687 -0.04307643 -0.023833279 -0.03245701
0.0035220077 -0.019506093 0.009448763 -0.0021998724 0.021424202 -0.033345394 0.021332 -0.023178408
0.02048751 0.034486692 0.009857174 0.014802818 0.044171397 0.021474848 -0.00584188 0.024593469
0.00976103 0.0066331904 -0.0072545307 0.019926313 0.0044166925 0.031130802 0.0075452197 -0.0054336507
0.019571308 -0.013018933 0.011283065 0.07294538 0.021504039 0.055711072 0.060671415 -0.0032438934
0.035616092 0.0012896889 -0.035755184 0.02893838 -0.029283708 -0.028522078 0.008049335 0.010271535
0.012119657 -0.0144984955 0.055755228 -0.028839124 -0.039876692 0.014593507 0.032832686 -0.017803814
-0.017142704 0.014157289 -0.03297983 -0.044924684 0.019650554 -0.009915814 0.037560835 0.0015216917
-0.018877175 -0.0033082715 0.0042550415 -0.0042766733 -0.0379683 -0.016204357 0.047628604 -0.00924899
0.013504258 -0.013798362 0.015279502 0.055965 0.038078304 0.05830398 -0.033491276 -0.026725873
-0.0112669235 -0.034617495 0.021041853 -0.0002540589 -0.023013586 -0.0243659 0.036754802 0.017378237
0.003286312 -0.03332928 0.032650705 0.027421629 0.01153719 -0.009228578 -0.01492856 0.0061274767
-0.00995627 -0.012829894 0.01115362 -0.008235461 0.026650788 -0.039847318 -0.027328812 0.010240505
-0.039515097 0.0041627297 -0.015381446 -0.03647848 -0.0022979726 0.00847877 0.019253738 0.03913551
0.0059650913 -0.00909269 0.036392562 -0.04264663 -0.0046170363 -0.012305224 -0.015451034 0.007863651
-0.024233144 -0.026147893 0.017780757 -0.020572077 -0.023423146 -0.04129899 0.0400775 -0.061638813
-0.015658442 -0.013505202 0.014423273 0.012833465 0.03250958 0.01086593 -0.02991032 0.019406928

actor.4.bias f4 [64]
00000000: 8bac 273d 8fed 8e3c 14d4 303c 3d28 153c
00000010: 4f84 5e3d dba0 dfbc 94dd c4bc 7c63 bcbb
00000020: 3b80 22bb 2e1a f73c 6436 3ebb 0e29 253d
00000030: c7ff 813c bbce 46bc 80c8 c7bc 3198 703d
00000040: 6369 a0bc af17 f53c b84a 79bb d137 813c
00000050: 88ee 5c3d 47b2 c1bc 9a3b 9a3c 7c15 123d
00000060: 2926 2b3d 29b2 5b3c 9d94 073d afa4 acbc
00000070: a8de ddbc 9057 533c 3b55 083d 1f06 cebc
00000080: 914d 4d3c 2411 043d e5bd 4d3d ad47 313d
00000090: b856 9038 6780 1e3c 9fec ff3c 4a73 e03c
000000a0: 254d 513c 21cc 1bbc f26e a03c ad87 2a3d
000000b0: 9cd6 edbb b594 233c f8f5 553d 28ba dabc
000000c0: 7559 52bc e6c3 1d3d 705f 7e3c a8b0 a5ba
000000d0: 5371 70bc f7b9 863b f2ab 193c 1470 273d
000000e0: 494e 2d3c 8296 e2bc 96aa f63a 9fc2 753d
000000f0: f9c3 cf3b dcdc 493d 8811 8bbc be61 f03c
0.040936034 0.017447261 0.010792751 0.009103832 0.054325398 -0.027298382 -0.024031438 -0.005749164
-0.002479567 0.03016385 -0.0029024119 0.040322356 0.015869034 -0.012134249 -0.024387598 0.05873889
-0.019581502 0.02991852 -0.003803892 0.015773686 0.05393842 -0.02364458 0.018827248 0.03566502
0.04178444 0.013409176 0.033100713 -0.021074621 -0.02708371 0.0128992945 0.033284407 -0.025149403
0.0125307 0.03224291 0.050229926 0.043281246 6.882608e-05 0.009674168 0.03124076 0.027398724
0.01277474 -0.009509117 0.019584153 0.041633297 -0.0072582494 0.009984185 0.052236527 -0.026700094
-0.012838711 0.0385169 0.015525684 -0.0012641149 -0.014675456 0.004111524 0.009379374 0.04087837
0.010577747 -0.027659658 0.0018819149 0.06000006 0.0063405004 0.049282894 -0.016976133 0.029343482

actor.7.weight f4 [4, 576]
00000000: 5888 193d 1905 a2bc bcff 073d e528 0abd
00000010: 9160 a9bc 9aa7 c43c b772 2bbd aed2 3fbd
00000020: 0304 91bc e3ea 86bc 7dd3 3dbd c498 9fbc
00000030: 787f 71bc 0e3e 3cbc ddb2 d43c d003 08bc
00000040: ee67 02bc 7f2e 19bc bfeb 03bd 4d91 3f3d
00000050: 395c 45bd 22b1 62bd 5354 8c3c 6328 273d
00000060: 8021 f93b 1f80 87bc 9243 00bd cdd2 aa3b
00000070: 100e 0fbd 0c63 c7bc f1af 0d3d 5bba fdbb
00000080: 2fdc 00bd 7863 4f3d fe57 bfbc cbe8 e2bc
00000090: 1a0f 0d3d 98b8 c43c 2bea ba3a ba0f 05ba
000000a0: ba5c a73c 0341 e6bc ff30 0cbb 6886 50bd
000000b0: 3e33 36bc 87c6 03bd 206a 4d3c 9526 e6bc
000000c0: a0a7 733c fd41 debb 7ba4 9e3d 4b0f 723b
000000d0: e994 d93c 4a4d e5bc 0646 c2bc e679 e1bc
000000e0: f627 e5bb beb3 bb3c d280 1cbd 96cd cc3c
000000f0: ccf3 20bc 4f23 7d3c 9141 3c3d a560 fdbc
00000100: febc fabc f8bb 49bd 6525 44bc 2488 32bd
00000110: 2eee ce3b 9282 11bd 8b7e efbb bd8d acbc
00000120: add9 d5bc 8b31 1fbc 97a0 733d afb7 24bd
00000130: b07b ca3a 8e70 79bd 2ee3 28bd 7b06 d83b
00000140: 4cff afba f8e2 4cbc bc42 e3bb f9da 273d
00000150: 8308 9bbc 18a6 243d 78cc 083d c0a2 65bd
00000160: acce 9abc 1fa7 843c 1c10 d5b9 85af 813c
00000170: a962 2e3d 8444 f2bc f0f5 20bd 2b20 b13b
00000180: 67f6 b03c 3205 70bd 873a a2b9 0ce4 4cbd
00000190: 0c66 a63d 91f7 80bc ef41 1abd 010c 38bd
000001a0: d422 24bd 51f1 8bbd 58cd 13bd 614b 07bd
000001b0: ddbf 0dbb 494d 083d 7541 5dbd 061f 693c
000001c0: 28aa 5e3d 9fcf 27bc b4d5 273d 8502 1fbc
000001d0: 897d 24bd 77e9 c33c 4b2c 113c be6d 1bbd
000001e0: bd14 063d 5bff f73c e9f9 f6ba a48f c2bc
000001f0: 4f0b 103d d834 66bc c976 5fbc e042 b13b
00000200: ec76 583c 5ba3 053c 93f9 253d c0d8 c93c
00000210: f1fa 51bc b644 96bd fc29 77bc a492 0cbd
00000220: 6e3d 25bc b1a1 1d3d 4ef8 5f3c 0b67 3abc
00000230: c003 723c 0d54 85bc b9c3 b73d 22bf 6ebc
00000240: d96a b13c ad68 96bc ab95 0fbc d323 bbbd
00000250: 6b37 78bc 489f 6ebb 7b72 49bc ff28 cd3c
00000260: 77fd cf3c 3e81 36bd c45f 303b 5a11 c5bc
00000270: f035 b53c 0e9b 90bd 5201 613b 7897 e2bc
00000280: c0aa 16bd d2f6 4a3c 9432 cdbc 0c8c 95bc
00000290: 31c9 35bd c6f3 65bc 5802 863d 1277 36bd
000002a0: 09bc 163d 0464 ba3a b34a 323c 397b 893c
000002b0: 6376 ebbc 632c 40ba 1309 03bd ffb5 003d
000002c0: 5821 1ebb 9827 0ebc 310b b63c f097 173d
000002d0: ecf3 bf3c cfc7 3abd e6aa 09bd 85ec 51bd
000002e0: a492 c4ba 6cd2 2cbd 0cf8 9f3c 70f8 bc3c
000002f0: bcd0 62bd f88f aebc 996e 2a3c be5b 18bd
00000300: 2184 5dbc aaad 2a3c a207 0abc 98b5 4e3c
00000310: 6f68 12bd bf97 e6bc 4f88 2a3c 2d13 e63c
00000320: 12ec 063d 53d9 15bc a011 563c b322 65bc
00000330: 63d6 913c e683 3cbc 162a 1e3c d046 7c3b
00000340: aa9c 373c f119 123c c002 2abc 8d67 2bbc
00000350: dba8 123a 8b59 fabc 8cb8 5cbb f3f1 d63c
00000360: a4fc 003d 2f14 ecbc 34a7 b8bc 0961 4dbd
00000370: 1f43 84bc 834c 2b3c d540 49bc 6bcf b1bc
00000380: d557 a5bc 4276 09bd d129 eebb 5bd4 703d
00000390: fbc9 c8bc c433 6cbd 080c 0abc ad7b 35bd
000003a0: 09d7 17bd 8231 093b 4fee c1bc cf7b 39bd
000003b0: 9b18 f93b 046c a93c 9130 203c 05b2 ac3b
000003c0: d131 abbc 5457 9cbb 0ae5 a4bc 28aa a5bc
000003d0: d159 843d 1994 933c 5ce5 acb9 3ad7 de3a
000003e0: 0b03 bcbc 7174 ef3a e5d7 d6bc 905c 453d
000003f0: b304 72bc dd3b e83c dc9d fabb 1712 92ba
0.037483543 -0.019777821 0.03320287 -0.033730406 -0.02067593 0.0240057 -0.041857447 -0.04683178
-0.017702108 -0.016469425 -0.04634427 -0.019482024 -0.014739864 -0.011489404 0.025964195 -0.00830169
-0.007959349 -0.009349464 -0.032207247 0.04676943 -0.048183654 -0.05534471 0.017130053 0.04081
0.0076028705 -0.016540585 -0.03131444 0.0052131177 -0.03492552 -0.024339221 0.03459162 -0.0077431626
-0.031459983 0.05063197 -0.023357388 -0.027698895 0.03443823 0.024013802 0.0014260461 -0.0005075891
0.020429958 -0.028107172 -0.0021391509 -0.05090943 -0.0111206155 -0.032171752 0.012537509 -0.02809457
0.014871508 -0.0067827688 0.07746216 0.0036935385 0.026560264 -0.027990956 -0.02371503 -0.027523946
-0.006993289 0.022912856 -0.03820879 0.025000375 -0.009823751 0.015450313 0.045960966 -0.030929873
-0.030607697 -0.049251527 -0.011971806 -0.043586865 0.0063150143 -0.035524912 -0.0073087863 -0.02106368
-0.026104772 -0.009716402 0.059479322 -0.040214237 0.0015448239 -0.060898356 -0.04123228 0.0065925694
-0.0013427525 -0.012505285 -0.0069354456 0.040980313 -0.018924957 0.04019746 0.03339812 -0.056063414
-0.018897377 0.01619297 -0.00040638528 0.015830765 0.04257456 -0.029573686 -0.039297044 0.005405446
0.021601869 -0.058598705 -0.00030942654 -0.05002217 0.08124933 -0.015743049 -0.037660535 -0.044933323
-0.040072277 -0.06833137 -0.036084503 -0.03303087 -0.0021629252 0.03327683 -0.054017503 0.014228588
0.054361492 -0.010242372 0.040975288 -0.009705191 -0.040158782 0.023915036 0.008860658 -0.037946455
0.03273462 0.03027313 -0.001884279 -0.023750134 0.035167035 -0.014050685 -0.01363916 0.0054095834
0.013211947 0.008156623 0.040521216 0.024639487 -0.012816177 -0.07337324 -0.015085693 -0.034319535
-0.010085447 0.03848428 0.01367004 -0.011377106 0.014771402 -0.01627543 0.08972878 -0.014571937
0.021657394 -0.01836046 -0.008763711 -0.09137692 -0.015149931 -0.0036410857 -0.012295361 0.025043963
0.025389416 -0.04455685 0.002691255 -0.024056125 0.022120446 -0.07060824 0.0034333062 -0.027660117
-0.036783934 0.012387948 -0.025048532 -0.018255256 -0.044381324 -0.014035171 0.06543416 -0.044547148
0.036800418 0.0014220481 0.0108820675 0.01678239 -0.028742975 -0.0007330833 -0.031991076 0.031423565
-0.002412876 -0.008676432 0.022222133 0.037010133 0.02343174 -0.04560071 -0.033610247 -0.051250953
-0.0014997316 -0.04219286 0.019527458 0.023067683 -0.055374846 -0.021308884 0.010402345 -0.037196867
-0.0135202715 0.010417381 -0.008424671 0.0126165375 -0.035744127 -0.02814853 0.010408475 0.028085316
0.032939978 -0.009146052 0.013065726 -0.013985324 0.017802423 -0.011506056 0.009653589 0.0038494356
0.011206785 0.008917318 -0.010376632 -0.0104617 0.00055946194 -0.030560276 -0.0033679334 0.026238417
0.031490937 -0.028818218 -0.022540666 -0.050141368 -0.016145287 0.0104552535 -0.012283524 -0.02170535
-0.020183483 -0.033560045 -0.0072681685 0.058796268 -0.024510374 -0.057666555 -0.00842572 -0.0443074
-0.037070308 0.002093405 -0.023673205 -0.04528409 0.00760181 0.020681389 0.009777204 0.005270245
-0.020897778 -0.0047711525 -0.020128746 -0.020222738 0.064624436 0.018014954 -0.00032977283 0.0017001398
-0.02295067 0.0018268955 -0.026225993 0.048183978 -0.014771628 0.028348858 -0.007648213 -0.0011144307

actor.7.bias f4 [4]
00000000: f492 1bbd 0a00 2e3c a16b 8fbc 8d67 193d
-0.037981942 0.0106201265 -0.017507376 0.03745227

critic.0.weight f4 [32, 3, 4, 4]
00000000: ee1b 8abb bb70 7dbc 18c1 223e 8ed2 49bc
00000010: 1b85 1b3e 0bf1 1e3e 29e9 8b3c 3f36 d93d
00000020: 0823 03be 2615 f3bd 1323 0fbd 9097 b3bb
00000030: 35e4 3dbd 4973 333c 2de4 19bb 2cf1 823d
00000040: 1715 023c 9e6d d9bd d772 0c3e 8a5e 36be
00000050: 899c e33d 0a67 32bd 4977 e33c bfda dc3d
00000060: d8c2 7b3d 7a90 27bd afe1 87be 72a4 6c3c
00000070: 9eb3 033e 803b a6bd 1bf6 03be 72b7 773d
00000080: 8aa2 2e3c c7da 10be 3112 93bd c542 f43d
00000090: f894 c33a 4049 113e cc14 0d3e a2cb e53d
000000a0: 0889 803c 0fd2 71bd e910 b6ba 0f4b 693d
000000b0: 5777 0bbc a5a9 b33d 43cb e1bd 3bb5 bb3d
000000c0: 717a da3d 58f2 6b3c 6a63 013e 7991 d53b
000000d0: 728b e23c b9e5 d53d 7b8f e83d b769 78bd
000000e0: c31b 05be cc69 b03d c904 063e 11d1 9f3d
000000f0: 8c46 ec3c cc7d c3bd 0432 f33d 9f15 b33c
00000100: 65b7 943d 99e8 1d3d 2e9e 22bd ab02 b2bd
00000110: dfa6 fd3d f585 d63d 2e64 b03d 6703 f43c
00000120: 6b99 1cbd 88b4 0bbe 9cd7 2bbe 7921 bd3d
00000130: 45a7 3abd 85cd eebd 2a12 1fbe 3058 0abe
00000140: 6330 d4bd 1b02 9b3d 2d88 db3c e519 9b3c
00000150: f825 533d 749f 2dbd e033 52bd 494d 0fbe
00000160: afab 043e 49f0 18bd 59dc 463d 5854 93bd
00000170: e663 793c f854 aebd 451b cb3d 34f4 cdbc
00000180: 98d0 c2bd e406 1d3e 3159 dfba 73a7 ebbc
00000190: e12f 023d 18d4 143e a1bf 56bc fd4b b33c
000001a0: 94b1 0a3e a647 243e e5aa 293d 0e89 bcbd
000001b0: 54a1 77bd 6f69 f4bd e36c b63d 8aa1 21bb
000001c0: 5d7e 6d3d be56 d1bd fc02 a03c f7dd 6dbd
000001d0: a7bf bbbc c9cb 003e 0032 053c 3f49 dcbd
000001e0: 50fc d93d 4b88 07be e9bb f03b 7eec cf3c
000001f0: 9159 c3bb 0607 30bd 0bdb d4bd 32b2 8fbd
00000200: 8269 ad3c 0a31 11be e05e cb3d c6e7 81bd
00000210: c287 0c3e f559 7cbc 6ee1 d9bd ecb9 7a3d
00000220: ede9 fbbd 0801 903d debd 113e 5f3c 833c
00000230: aab6 033d 3f64 69bd 0283 b6bc a436 223d
00000240: 5bd5 02be 88ec e7bd 76ea 183e 7a6d 603d
00000250: 62d7 2abc 3e05 4a3d 0340 b9bc c364 563c
00000260: f007 8f3d 5980 d23d a2c6 7dbd dc2a aebd
00000270: f858 eabd 5da8 ef3b f260 0fbd 9bfe 25bd
00000280: d4c3 ae3d cc0c 0b3c cef3 773d f306 21bd
00000290: ec75 c4bd 988a cfbd a3fc b6bc 8997 0ebe
000002a0: a540 093d bf63 8dbd 520a 143c 699e 923d
000002b0: 12cf 53bc 1c39 b83b 03c9 c83d 9110 d4bd
000002c0: 97e6 3e3d d783 eb3d f4f4 123d 082a c0bd
000002d0: fe70 e73d 70b4 f8bd bf81 c6bd d4a4 5dbc
000002e0: 6dcd 303d 2074 ed3c f56d 093e 6d36 8bbd
000002f0: c294 b13d 2132 d33d 3838 483d 0de1 0dbe
00000300: 3f59 c73d a155 96bd 5971 303d 3dd8 8c3d
00000310: abf9 1ebe 69ac 0abe a048 833d f715 e5bd
00000320: 44ec c7bd d29b b2bd 393d 4ebc 4ff4 e13c
00000330: e4d4 6e3d 7b89 b43d 737a 0e3d aeea 5f3a
00000340: 50a8 13bc b3f3 55bd d256 f4bd 54b3 863c
00000350: 8973 14be 138c c83d f18b 92bd 5ecc 22bd
00000360: b1a8 9c3d 001b 12be 8f38 01be 7277 f83d
00000370: df83 e0bd d5f6 d53d 9c54 35be 4a1f a8bc
00000380: 541f 0f3e d845 9d3d 721b 8ebd 70fe d23c
00000390: 1381 a5bd 1e37 e4bd b27e c43d 6eec 9c3c
000003a0: ffcb 5abd f0ad 403d 70a9 8d3d 9b44 0c3e
000003b0: d635 a4bd d1c6 d83d eca7 d13d 32d9 113e
000003c0: 8078 fbbd 0c53 b6bd 6273 9f3c 6b00 f1bd
000003d0: 00fb d5bd 24d3 b13d da92 103d bfcf eb3c
000003e0: 8508 f23c 9c51 703d a1c6 d63d 702a b13d
000003f0: 25b9 a73d 5ed6 88bd d565 b73d d4e0 b43d
-0.0042147553 -0.015468772 0.15893972 -0.012318267 0.15187494 0.15521638 0.017078953 0.1060605
-0.12806332 -0.11869268 -0.03494556 -0.005480714 -0.046360213 0.010952779 -0.002348195 0.06393656
0.0079395985 -0.10616611 0.13715683 -0.17809501 0.11113841 -0.043555297 0.02776684 0.1078391
0.061465114 -0.040909268 -0.2653937 0.014443504 0.12861487 -0.081168175 -0.1288685 0.06047768
0.0106588695 -0.14145957 -0.07181204 0.11926798 0.0014921715 0.14188099 0.13777465 0.112204805
0.015690342 -0.059038218 -0.0013890538 0.056956347 -0.00851234 0.087725915 -0.11025097 0.09165426
0.10667885 0.014401041 0.1263558 0.006517586 0.027654383 0.10444207 0.11355492 -0.060647693
-0.12998872 0.08613929 0.13087763 0.07803548 0.028842233 -0.09545478 0.11874774 0.021860896
0.07261542 0.0385519 -0.039701633 -0.08691915 0.12385344 0.10474769 0.08612858 0.029786779
-0.03823225 -0.13643086 -0.16781467 0.092349 -0.045569677 -0.116602935 -0.15534273 -0.13510203
-0.103607915 0.07568761 0.026798332 0.018933246 0.05154988 -0.042388394 -0.051319003 -0.13994326
0.12956117 -0.03733853 0.048549984 -0.07193822 0.015221572 -0.085123 0.099173106 -0.02514086
-0.09512442 0.1533466 -0.0017040131 -0.02876637 0.031783942 0.14534032 -0.013107211 0.02188682
0.13544303 0.16042957 0.041422743 -0.092058286 -0.06045659 -0.11934172 0.08907487 -0.0024662935
0.057981838 -0.10221623 0.019532673 -0.05807301 -0.022918535 0.12577738 0.008129597 -0.10756158
0.10643828 -0.13235585 0.0073466194 0.025381323 -0.005961605 -0.042975448 -0.10393342 -0.0701641
0.021168474 -0.14178863 0.09930205 -0.063430354 0.13723662 -0.015402307 -0.106387004 0.061212465
-0.12300477 0.07031447 0.14232585 0.016019998 0.032156624 -0.056980368 -0.022279266 0.03960289
-0.12776701 -0.11324412 0.1493319 0.054791905 -0.010427328 0.049321406 -0.022613531 0.013085547
0.06983936 0.102783866 -0.06195701 -0.085042685 -0.11442751 0.0073137716 -0.035004564 -0.040526014
0.08533445 0.008486938 0.060535245 -0.039313268 -0.09592804 -0.101338565 -0.022337263 -0.13924994
0.033508915 -0.06903791 0.009035664 0.071591206 -0.012927787 0.0056220423 0.09803965 -0.10354722
0.046606626 0.11499756 0.035878137 -0.09383017 0.113008484 -0.12143791 -0.09692716 -0.013528068
0.04316466 0.028986037 0.13420852 -0.0679749 0.086709514 0.10312296 0.04888174 -0.13855381
0.09733819 -0.07340551 0.043076847 0.06877182 -0.15524928 -0.13542332 0.064103365 -0.1118583
-0.09761861 -0.087211266 -0.012587839 0.027582316 0.058308497 0.08815285 0.034784745 0.0008541745
-0.009012297 -0.052234363 -0.11930622 0.016442932 -0.14497198 0.09792342 -0.07155598 -0.03974568
0.07649363 -0.14268112 -0.12619232 0.121321574 -0.109626524 0.1044747 -0.17708057 -0.020522732
0.13976794 0.07679337 -0.069388285 0.02575609 -0.080812596 -0.11143325 0.09594478 0.019155707
-0.053417202 0.04704088 0.06917083 0.13698046 -0.08018081 0.10584796 0.10237107 0.1424301
-0.12278843 -0.08902559 0.019464198 -0.11767658 -0.10448265 0.0868285 0.0352963 0.028785584
0.029545078 0.05867158 0.10487104 0.086506724 0.081896104 -0.06681512 0.0895497 0.08831945

critic.0.bias f4 [32]
00000000: bb09 91bb 93b8 0bbd 64e6 05be 2385 03be
00000010: 86ef c7bd 1ef4 a8b8 49a7 ea3d 5408 05be
00000020: 4e27 ce3d 148d 833c edd0 023e 9d28 08bb
00000030: 5f42 bd3d f586 a33d 073c a73d 3cba 26be
00000040: 4b42 43bd d0bd 8ebb 40c6 dbbd 7d44 e5bd
00000050: c9cb 81bc ae64 8a3b 50fa febd 6a20 9dbd
00000060: e324 fdbc 29a4 82bd c4f3 c2bd f050 07be
00000070: 5db5 5abd f188 d13d 932b 303d ed1b 173e
-0.004426209 -0.03411157 -0.13076168 -0.12843756 -0.09762482 -8.0563346e-05 0.11457688 -0.12991458
0.100660905 0.016058482 0.12775011 -0.002077616 0.09241175 0.079847254 0.08165746 -0.1628198
-0.047670644 -0.0043561235 -0.107311726 -0.11194704 -0.015844243 0.0042234277 -0.12450087 -0.07672198
-0.030901378 -0.06378967 -0.09519151 -0.13214469 -0.053395618 0.102311976 0.043010306 0.14756747

critic.2.weight f4 [64, 32, 4, 4]
00000000: 2301 d73c e9e0 023d ac78 27bd b56e c8bc
00000010: c4d6 dabc 6128 2ebd 9d62 49bd 0797 c7bc
00000020: 967b 943c 1914 78bb 79e1 86bd 47ad 2cbd
00000030: 094b b4bc 29c3 c2ba 7b81 313d 9d97 9fbc
00000040: 6e9c ebbc c9d6 193d 99ab 953c a3b5 0b3b
00000050: a23e a03c 4cba e8bd e790 b939 376c 123d
00000060: 572c 2abd 324f 1fbd fb85 b8bb d64d db3c
00000070: 8d0f f53c 748b f03a 2f68 f7bc d64e 073d
00000080: 3dcb 2abc 673a b1bb 19dc a4bc 09be 233d
00000090: c1ad 5a3c c4c3 9a3c 1755 f03c 421d 13bc
000000a0: 3839 0d3c db8a abbd 83d3 2dbd 9f69 033d
000000b0: adb5 1abd f3ab 00bb d9fc 2d3d c651 2cbd
000000c0: c99b 35bc ef5b 9e3c 7d31 54bc 068b 283d
000000d0: 331d 333c 6be7 03be 7708 4cbd 9841 6a3c
000000e0: 6d03 0f3c 1197 d5bb 98c9 71bd 262f b03c
000000f0: 2817 0f3d a1a6 963c efab fd3c 55ee d43a
00000100: 437c 6abc 9444 b7bb db4c eb3c b6d4 b8bc
00000110: f496 063d 91dd 2ebd dcfa 32bc 4c50 423c
00000120: 7f53 653c f163 2f3d 98c0 50bc 5163 7abb
00000130: 3320 0abd 826b 20bd 431c 4abc d689 da3c
00000140: 3dfc 333d 8f31 9dbc 3e34 2d3d 5b50 c2bc
00000150: de8d ebbc 4002 0abd 8f75 e33c 3fcb 033a
00000160: 0eeb 2f3d 072e 9cbc 18f2 593c 014d 113d
00000170: 3e52 923c 363e 593b ca50 52bb 12a3 c33c
00000180: b95e f33c f5df 0abd d7c1 21bd 7295 303d
00000190: 8bb5 dcba 3451 1abd 4802 7dbd 2606 33bd
000001a0: 6984 9fbc e93a 813d 1f0c c23d 66c3 1cbd
000001b0: 5781 9f3c 3150 18bd 94f5 863c a11b a3bb
000001c0: 5e5f 05bd b839 e13c 8ef7 d43c c4c4 583b
000001d0: be5b ab3c adbd 1cbc 66a8 adbc 86be f8bc
000001e0: 137d 863b 24cd f1bd c18b 2c3d 76cf e53c
000001f0: 2eb6 263d 1ca7 09bb 8eb3 c9bc 100e 833c
00000200: 05db 103c 1f86 1fbd 085d 27bd 45f1 7e3c
00000210: c7d7 203d fc94 b23c c309 1b3d 9c27 3bbb
00000220: 0987 dbbc 38a5 6f3c b58c 41bd 37c2 883c
00000230: 7ce6 25bd a20f 31bd c544 99bc 8dd5 9b3a
00000240: 140a 97bc 9116 113d 7118 fa3c a463 9bbc
00000250: b94b f5bb c466 053e 1554 fd3a 2833 563b
00000260: bb73 043d dc50 f0bb 4c8d 74bc d936 da39
00000270: 351c 37bc b8d7 fdbc 6456 06bd 4a0e 08bd
00000280: 3780 cfbc d77b c03b 910e b6bc c910 263c
00000290: fb4c 4f3c 17c8 2fbd ce0b ecbc 5ba9 b03b
000002a0: cd0e 293c 1847 373b d33b 20bd fcfb a8bc
000002b0: 6048 adbc 39c1 8cbc 08e7 8a3b 2d55 ed3c
000002c0: e9fb 1bbd 44d8 2fbd b070 053d 23db a8bc
000002d0: d6d0 293d f0dc f73c 2093 53bc 632b ce3c
000002e0: 0839 ec3c d2f6 29bd d7b7 a8bd 5115 2b3d
000002f0: 019f d6bc dea4 41bb c965 14bd 822e 26bd
00000300: 88cb a53c 7d6a 413c 2c2d 31bd 81ab 6a3c
00000310: 8ed7 2c3d dda5 0d3d e43f 2f3d 37f3 08bd
00000320: a901 ebbc 6e83 f43c b964 3ebc 0389 ddbb
00000330: a937 873c 313a 0bbd 3555 743c 485f dd3c
00000340: c30c df3c db6c ef3c e8e6 333d 95ce 68bb
00000350: 7de9 1d3d a529 c7bd b06c 47bd 907a f2bb
00000360: ba8d 103a 3b1a 293d f226 5b3d 121c a338
00000370: c502 92bc 53e1 25bd 3602 b93c 8c02 b43b
00000380: 0af5 c33c 1ab6 c6bc e2c3 0c3d 6c97 17bd
00000390: 606c 123d da07 c0bc e8a0 963d 2734 133d
000003a0: 49d6 103d 2df2 ea3d 29e0 a6bd f942 10bd
000003b0: 86a3 1b3c d58b 93bb e95c b23c 6ae8 253c
000003c0: 9dc2 d4bc 261d 933c 75ee 94bc 7d96 1b3d
000003d0: 3e6d 643c 8311 c03c 09c1 dc3d 445b 0c3d
000003e0: 62e0 d5bc 3b4e e8bd 12f8 ad3b 844b 21bd
000003f0: fa0a c93c 9243 943c e80f 18bb e32f e3bc
0.02624566 0.031952772 -0.040886566 -0.024466852 -0.026713736 -0.042518977 -0.04916631 -0.024364008
0.018125337 -0.0037853776 -0.06585974 -0.042157438 -0.022008436 -0.0014859188 0.043336373 -0.019481475
-0.028761115 0.03755835 0.0182703 0.002131798 0.019561116 -0.11363658 0.0003539391 0.035747733
-0.041546192 -0.038893886 -0.005631206 0.026770514 0.029914642 0.0018352107 -0.030201046 0.03303417
-0.010424432 -0.0054085734 -0.020124482 0.039976154 0.01334709 0.018892176 0.029337449 -0.008979144
0.008619599 -0.08376094 -0.04243804 0.03208315 -0.037770916 -0.001963374 0.042477462 -0.042070173
-0.011084505 0.019330947 -0.012951252 0.041148208 0.010932255 -0.12881248 -0.04981276 0.014297865
0.008728844 -0.0065182527 -0.059030145 0.021506857 0.034934193 0.018390002 0.030965773 0.0016245345
-0.014311853 -0.005592892 0.028723171 -0.022562366 0.032858804 -0.04269177 -0.010924067 0.011859965
0.013996958 0.04281992 -0.01274123 -0.003820617 -0.033722114 -0.039165027 -0.01233584 0.026677053
0.043941725 -0.01918867 0.04228615 -0.023719957 -0.028754171 -0.033693552 0.027766017 0.00050275394
0.042948775 -0.019064916 0.013302349 0.035473827 0.017861482 0.0033148653 -0.003209161 0.023881469
0.029708253 -0.03390499 -0.0394915 0.043111272 -0.0016838772 -0.037675098 -0.061769754 -0.043707035
-0.019472318 0.06310064 0.09474968 -0.038272284 0.019470854 -0.03718585 0.016474523 -0.004977659
-0.032561652 0.027493343 0.02599695 0.0033076266 0.02091777 -0.009566707 -0.021198463 -0.030364286
0.0041042655 -0.118067056 0.042125467 0.028053027 0.040701084 -0.0021004146 -0.024621751 0.015997916
0.008841281 -0.038946267 -0.040860206 0.015560453 0.03926828 0.021799557 0.037851106 -0.0028557545
-0.026797788 0.014626794 -0.04725333 0.016694171 -0.04050301 -0.0432278 -0.01870955 0.0011889205
-0.018437423 0.03542191 0.030529233 -0.01896841 -0.0074858335 0.13027483 0.0019327427 0.00326843
0.03233693 -0.007333858 -0.014926266 0.00041621065 -0.011176159 -0.030986652 -0.032797232 -0.033216752
-0.025329692 0.005874138 -0.022223743 0.010135838 0.012652631 -0.04291543 -0.028814223 0.0053912825
0.01031847 0.002796596 -0.039119553 -0.020627968 -0.021152675 -0.01718198 0.004238967 0.028971279
-0.038082037 -0.042930856 0.03257817 -0.020612305 0.041458927 0.030256718 -0.012913495 0.025167173
0.028835788 -0.04149515 -0.0823819 0.041768376 -0.026198866 -0.0029547731 -0.036229882 -0.040571697
0.020238653 0.011805174 -0.04325597 0.014323116 0.042197756 0.034582008 0.04278554 -0.033435073
-0.028687315 0.029847827 -0.011620694 -0.006760718 0.016506033 -0.033991043 0.014912893 0.027022973
0.027227765 0.029226711 0.04392138 -0.0035523523 0.03855275 -0.0972474 -0.048687637 -0.0073998645
0.0005514283 0.04128478 0.053503938 7.777674e-05 -0.017823586 -0.04049809 0.022584062 0.0054934677
0.023920555 -0.024256755 0.034366496 -0.03700964 0.035747886 -0.023441244 0.07354909 0.03593841
0.03536061 0.114719726 -0.08148224 -0.03522012 0.009499436 -0.0045027533 0.021772819 0.010126213
-0.025971705 0.017958235 -0.018180111 0.037985314 0.013942061 0.02344585 0.10779006 0.034266725
-0.02610797 -0.11343046 0.0053091133 -0.039378658 0.024541367 0.018098626 -0.002320284 -0.027732795

critic.2.bias f4 [64]
00000000: d0f5 533d 80f2 79bc b887 cf3c 0677 443c
00000010: ff6d f6ba 6b76 54bd 1acb f5bc 8356 6b3b
00000020: 3bd5 333d 89e4 cbbc 0d90 94bc 7ad9 7e3b
00000030: 52e0 693b 7089 0cbc 3b8d bbbc d142 54bc
00000040: 2129 57bc 2e6e c8bc df0c 98b9 1f07 64bc
00000050: a306 37bd 8501 143c 70a7 293d 7d27 3ebc
00000060: 240d 62bd cacb 88bc ef64 dabc 3229 1c3d
00000070: 9015 dfbc c67f 1bba 7dbf 4bbc 3ae5 3bbd
00000080: 6e61 9dbc 978e 893c 9b2d fdbb 10e1 183d
00000090: 4b24 91bc 3d77 74bd 4b2e aabc 213d cc3c
000000a0: d2b2 5fbc 1153 0fbc a239 01bc c5cf 323c
000000b0: 5d52 97bc 5feb 943c a0e4 403d 7fef f1bc
000000c0: cf25 08bd 162c 66bd e1b7 76bc 17de 90bb
000000d0: 3145 e2bb c3d2 49bc c097 24bd bfef b23c
000000e0: a5ff bfbb c169 e73c 479a 7e3a 7478 37bd
000000f0: 9736 19bd 07d3 54bc abb6 bbbc 7107 07bc
0.051748097 -0.01525557 0.02533327 0.011991268 -0.0018801092 -0.051870745 -0.030004073 0.003590972
0.043904524 -0.024889247 -0.018135095 0.003888695 0.0035686684 -0.0085776895 -0.022894492 -0.012955383
-0.0131323645 -0.0244666 -0.0002900129 -0.013917713 -0.044684064 0.009033565 0.041419446 -0.011606094
-0.055188313 -0.016698737 -0.026659457 0.038125224 -0.027231961 -0.00059318205 -0.012435791 -0.045872904
-0.019211497 0.016791625 -0.007726384 0.03732401 -0.017717501 -0.059684027 -0.020774027 0.024931492
-0.013653474 -0.008747832 -0.007887276 0.010913794 -0.018471891 0.01817864 0.047093034 -0.029533146
-0.033239182 -0.056194387 -0.015058489 -0.0044210064 -0.006905221 -0.012318316 -0.040183783 0.021842835
-0.0058593326 0.02824867 0.000971232 -0.044792607 -0.037405577 -0.012989766 -0.022914251 -0.00824152
